solar_detection/checkpoints/roof_detector.pt (torch, 64947 bytes, 19 tensors)

conv1.weight f4 [8, 3, 3, 3]
0	0x3e3748c8	0.17898858
1	0x3ded08db	0.11573955
2	0xbd840c1a	-0.06447621
3	0xbe084a3e	-0.13309571
4	0x3cc6940d	0.024240518
5	0x3e4376f2	0.19088343
6	0xbe41b2d4	-0.18915874
7	0x3d91cb5d	0.071188666
8	0x3dcc377f	0.099715225
9	0x3d74703e	0.059677355
10	0xbcbdaf75	-0.023154953
11	0x3c37de44	0.011222426
12	0x3d72989c	0.05922757
13	0xbe0c74bf	-0.1371641
14	0xbddbc716	-0.10731332
15	0x3d01f29c	0.03172551
16	0x3e10a008	0.14123547
17	0xbe2ce58a	-0.16884437
18	0x3dd88740	0.10572672
19	0xbe15c408	-0.14625561
20	0xbcc25290	-0.02372101
21	0xbd4b32f2	-0.049609132
22	0xbd169257	-0.036760654
23	0xbd8daa86	-0.069172904
24	0x3c242f59	0.010021054
25	0xbdcd2ab9	-0.10017914
26	0xbdbbfcde	-0.0917909
27	0xbd6582ec	-0.05603306
28	0xbda5cd99	-0.08095855
29	0x3e286511	0.16444804
30	0x3de3eddb	0.11129352
31	0x3dec9007	0.115509085
32	0xbe4ac194	-0.19800407
33	0x3dc46197	0.09588926
34	0xbde73fec	-0.11291489
35	0xbdf57c66	-0.11986618
36	0x3e25ce5e	0.16192004
37	0x3e17b131	0.14813687
38	0x3e4289b1	0.18997838
39	0xbe0f6280	-0.14002419
40	0xbd25ba04	-0.0404606
41	0x3d7d84c6	0.0618942
42	0x3de8cec1	0.1136756
43	0xbe358ab9	-0.177287
44	0x3dc2b79f	0.09507679
45	0xbe2b0919	-0.16702689
46	0xbe446161	-0.19177772
47	0x3dae5307	0.0851193
48	0xbe410640	-0.1885004
49	0xbdb1fb7a	-0.086905435
50	0x3e3de4d5	0.18544324
51	0x3d58cdb6	0.052930556
52	0x3c6b5265	0.014362906
53	0x3db40cfa	0.087915376
54	0xbe30665f	-0.17226551
55	0xbd0d170b	-0.034445804
56	0x3ddcd87c	0.107834786
57	0x3ddea66e	0.10871588
58	0x3e3c103c	0.18365568
59	0x3d3d36fe	0.046195023
60	0xbe2ecd91	-0.17070605
61	0x3e3033de	0.17207286
62	0xbdbeb9df	-0.09312796
63	0x3e1d79ee	0.15378544
64	0xbe41107a	-0.18853942
65	0xbde409c5	-0.11134676
66	0xbe1f4aea	-0.15555921
67	0xbd4f1b73	-0.050563287
68	0x3d808f02	0.062772766
69	0x3df88788	0.121352255
70	0x3e026d06	0.12736902
71	0x3cfeb7f4	0.031093575
72	0xbe1770e7	-0.14789163
73	0x3e152f9d	0.14568944
74	0x3e279c9b	0.16368334
75	0x3dbd67c1	0.09248305
76	0x3db55eaa	0.08855946
77	0xbc4afcb0	-0.012389347
78	0xbe1e67c3	-0.1546927
79	0x3adae63a	0.0016700693
80	0x3dfff2f1	0.12497509
81	0xbe4185df	-0.18898724
82	0x3cf075e0	0.029353082
83	0x3bbf0f00	0.0058306456
84	0x3e1a1206	0.15045938
85	0xbd5c2ee8	-0.05375567
86	0xbe0c7119	-0.13715018
87	0xbd511d9b	-0.051053625
88	0x3e277b31	0.16355588
89	0xbd963b87	-0.07335573
90	0x3d9f608e	0.07782088
91	0xbe0249e6	-0.12723503
92	0xbd27f44f	-0.041004475
93	0xbe25b811	-0.16183497
94	0x3d377b03	0.044795047
95	0x3e26a32b	0.16273181
96	0xbda22353	-0.07916894
97	0xbdcf0b57	-0.10109585
98	0xbd89e787	-0.067336135
99	0x3e1b8de6	0.15190849
100	0xbdafd47f	-0.08585452
101	0xbe0b1711	-0.13583018
102	0xbc1cccfc	-0.009570356
103	0xbdb25440	-0.08707476
104	0x3d58742f	0.052845176
105	0xbd7941e2	-0.060853846
106	0x3cd2f6fa	0.025752533
107	0xbc4cfcea	-0.012511471
108	0x3dfae408	0.12250525
109	0x3dd15339	0.102209516
110	0xbd9cbb43	-0.07652905
111	0x3e311096	0.17291483
112	0x3e0624f6	0.13100037
113	0x3c87058a	0.016482133
114	0xbdf3ff5b	-0.119139396
115	0x3c5e97c0	0.013585985
116	0x3caeab7a	0.021322
117	0x3e19e365	0.1502815
118	0xbd51bd21	-0.051205758
119	0x3e171ec5	0.14757831
120	0x3dcc6ea5	0.09982041
121	0xbc50f435	-0.012753536
122	0x3e116bc3	0.14201264
123	0x3e079cac	0.1324336
124	0xbe1ee31c	-0.15516323
125	0xbd67ca44	-0.05658938
126	0xbd623f1f	-0.05523598
127	0x3d32060f	0.04346281
128	0x3e423505	0.18965538
129	0xbc7da48e	-0.015481127
130	0xbde3307a	-0.110932305
131	0xbb75293e	-0.0037408615
132	0xbe21bb6f	-0.15794156
133	0x3c0ad72a	0.008474151
134	0x3df29bc2	0.11846115
135	0x3dc1b160	0.0945766
136	0xbdf96190	-0.12176812
137	0xbd4a7ab7	-0.049433436
138	0x3c8eacd2	0.017416392
139	0x3df03f7b	0.11730858
140	0x3e050749	0.1299106
141	0xbe0ac00f	-0.13549827
142	0xbcdcbd50	-0.02694574
143	0xbe118afe	-0.14213178
144	0xbe2b4db2	-0.16728857
145	0x3de730cc	0.11288604
146	0x3e1b98fa	0.15195075
147	0xbd47af77	-0.04875132
148	0xbe3d9bf7	-0.18516527
149	0xbd9225c2	-0.07136108
150	0x3d5e3c9a	0.054257013
151	0xbddc8c2c	-0.10768923
152	0xbd4e4789	-0.05036119
153	0xbd9e1950	-0.07719672
154	0x3e02bf5d	0.12768312
155	0xbca3ee01	-0.02001095
156	0xbd5e0fa0	-0.05421412
157	0xbbdd8972	-0.0067607695
158	0xbdca0fa5	-0.09866265
159	0xbe138a6d	-0.14408274
160	0x3d1b431e	0.037905805
161	0xbd0df826	-0.03466048
162	0xbd10c240	-0.0353415
163	0xbd748ffe	-0.059707634
164	0x3d6da800	0.058021545
165	0x3d8370c5	0.064179935
166	0x3bb970be	0.005659192
167	0x3e0f9751	0.14022566
168	0x3d98511f	0.074373476
169	0x3c8725d2	0.016497526
170	0x3e35a89f	0.17740105
171	0x3d8ba946	0.06819396
172	0xbdda07d7	-0.106460266
173	0xbd7d5b4e	-0.061854653
174	0xbd256151	-0.04037601
175	0x3d78f2da	0.060778476
176	0x3d08df67	0.033416178
177	0xbd968dfa	-0.07351299
178	0xbd9e447f	-0.07727908
179	0x3c26e638	0.010186724
180	0x3db4ceb2	0.088284865
181	0x3d23dc04	0.040004745
182	0x3dc31992	0.095263615
183	0x3dc9980b	0.09843453
184	0xbde32138	-0.1109032
185	0x3e1a868c	0.15090388
186	0xbc1e0d6e	-0.009646757
187	0xbd10db27	-0.03536525
188	0x3dc50f27	0.09622031
189	0xbca768e0	-0.02043575
190	0x3c66800a	0.014068613
191	0x3c6d1be5	0.014471983
192	0xbd76c283	-0.060244095
193	0xbc1c6917	-0.00954654
194	0x3e00b64f	0.12569545
195	0xbe12f4c4	-0.14351183
196	0xbdb0ad19	-0.08626766
197	0xbcdbae12	-0.026816402
198	0x3e360f6a	0.17779317
199	0x3e0d67cb	0.13809125
200	0x3e161f97	0.14660488
201	0xbcd96656	-0.026538055
202	0x3c79fdd3	0.01525827
203	0xbd1bf14d	-0.03807192
204	0xbd6a83d7	-0.05725464
205	0x3e02bb24	0.12766701
206	0x3e0e233f	0.13880633
207	0x3b51a33c	0.0031988164
208	0x3e2a7f6a	0.16650167
209	0x3d9b9793	0.0759727
210	0xbd2dfc96	-0.042477213
211	0xbe482017	-0.19543491
212	0xbcb226a8	-0.021746948
213	0x3d18676e	0.037208013
214	0xbe2cd7f4	-0.16879255
215	0xbd02d729	-0.031943474

conv1.bias f4 [8]
0	0x3a77d029	0.00094533205
1	0x3d870528	0.0659278
2	0xbe0c5829	-0.13705505
3	0x3deaa8f6	0.11458008
4	0xbd7211ca	-0.059098996
5	0x3d9e8d6e	0.07741819
6	0x3d332b59	0.04374251
7	0xbc6a207a	-0.01428997

bn1.weight f4 [8]
0	0x3f7e2717	0.99278396
1	0x3f7b95d9	0.98275524
2	0x3f80dfee	1.0068338
3	0x3f7da0e0	0.990736
4	0x3f77fd5b	0.96870965
5	0x3f7906f1	0.97276217
6	0x3f7bc29d	0.9834383
7	0x3f7b7929	0.9823175

bn1.bias f4 [8]
0	0x3bfaa1bd	0.0076486752
1	0xbb203d56	-0.0024450622
2	0x38a55032	7.882751e-05
3	0x3bc6ef4f	0.0060710083
4	0xbc27a424	-0.010232005
5	0xbc65931a	-0.0140121225
6	0xbbf6f001	-0.007535935
7	0x3b7d7642	0.0038675223

bn1.running_mean f4 [8]
0	0x3dbbfe04	0.09179309
1	0xbaf3bfb9	-0.0018596567
2	0xbeca23af	-0.3948035
3	0x3eef8fbb	0.46789345
4	0xbf0db8dc	-0.553602
5	0x3ef86c2e	0.48520035
6	0xbeb22dce	-0.3480057
7	0xbe26b2a2	-0.1627908

bn1.running_var f4 [8]
0	0x3d07823a	0.033083178
1	0x3c0d0044	0.00860602
2	0x3d78256c	0.060582563
3	0x3db01733	0.08598175
4	0x3e0d31a0	0.13788462
5	0x3e06cf9c	0.13165134
6	0x3decdceb	0.11565574
7	0x3cccc43e	0.02499592

conv2.weight f4 [16, 8, 3, 3]
0	0xbd9e8b2f	-0.07741391
1	0xbb19cb35	-0.0023467068
2	0xbd9aae80	-0.075528145
3	0x3d6b6e72	0.057478376
4	0x3d7de7a9	0.061988506
5	0xbdd2f50d	-0.10300646
6	0x3d8611fe	0.065464005
7	0x3df80f42	0.12112285
8	0xbd98e018	-0.074646175
9	0x3dc3214c	0.09527835
10	0xbdaee0ad	-0.08538947
11	0xbdbb8a07	-0.09157186
12	0xbd8b9e86	-0.06817345
13	0x3c796c08	0.015223511
14	0xbc9ba3f4	-0.018999077
15	0x3de77ec2	0.11303474
16	0x3cb16554	0.021654762
17	0xbdb93544	-0.09043363
18	0x3dcc74d5	0.099832214
19	0x3ba4c544	0.0050283987
20	0x3cad1469	0.021127896
21	0x3dbc5481	0.09195805
22	0xbd756502	-0.05991078
23	0xbd52ecce	-0.051495366
24	0xbdcc16cf	-0.09965288
25	0x3d184479	0.037174676
26	0x3dca1008	0.09866339
27	0x3c0c8132	0.008575724
28	0x3d0712cf	0.03297692
29	0x3d9886bf	0.07447576
30	0x3c44ff33	0.012023735
31	0xbd7743aa	-0.060367264
32	0x3ce48adf	0.02789825
33	0x3d98f24b	0.07468089
34	0xbc427a5b	-0.011869992
35	0x3ddc02e8	0.10742742
36	0xbd34d8ce	-0.044152074
37	0x3df0b3e8	0.117530644
38	0x3df78fac	0.1208795
39	0x3da68bbb	0.0813212
40	0x3d68b741	0.05681539
41	0x3d8031d3	0.06259503
42	0x3d140319	0.036135767
43	0x3dd55988	0.10417467
44	0xbb55d310	-0.0032627024
45	0xbd606524	-0.054783955
46	0x3d244dc7	0.040113237
47	0x3c53f7f9	0.012937539
48	0xbdc4d250	-0.096104264
49	0xbda74b5a	-0.08168669
50	0x3d1ef069	0.03880349
51	0xbc353761	-0.011060567
52	0xbc9ef04c	-0.019401692
53	0xbd55d45c	-0.052204475
54	0xbda99852	-0.08281006
55	0x3d47c919	0.048775766
56	0xbdbc7441	-0.09201861
57	0x3d198454	0.037479714
58	0x3de58aab	0.112080894
59	0xbdb65d9e	-0.08904575
60	0xbdd3de3d	-0.10345123
61	0xbd36c587	-0.04462197
62	0x3bebcfe7	0.0071964148
63	0x3cb594e4	0.022165723
64	0xbdb9c799	-0.09071273
65	0xbd2b8b3a	-0.041880824
66	0xbd50e19b	-0.050996404
67	0x3d446711	0.047949854
68	0x3c1a22b7	0.009407691
69	0xbd80bfd5	-0.06286589
70	0xbd3c3771	-0.04595131
71	0x3d68324a	0.056688584
72	0x3d323f94	0.043517664
73	0x3dc78041	0.09741259
74	0x3cded240	0.027199864
75	0xbda60bb7	-0.08107703
76	0x3d18bbfd	0.037288655
77	0xbd8383e6	-0.06421642
78	0x3d5e03cf	0.05420285
79	0xbd4f8af5	-0.05066963
80	0x3d83eadf	0.064412825
81	0xbd2390d3	-0.039933037
82	0xbdd9ea1c	-0.10640356
83	0x3ccd75c4	0.02508057
84	0xbd8131bf	-0.063083164
85	0x3de40535	0.11133806
86	0xbd9f2106	-0.077699706
87	0xbd5630ba	-0.052292563
88	0x3bf16385	0.0073666
89	0xbc815f4b	-0.01579251
90	0xbd3d29a7	-0.0461823
91	0xbd6242b8	-0.05523941
92	0x3d60e2d0	0.054903805
93	0xbd17d9bd	-0.037072886
94	0xbcda7688	-0.026667848
95	0xbd9a53cf	-0.075355165
96	0xbdd291d7	-0.10281723
97	0xbdba883b	-0.09108015
98	0x3d55240c	0.05203633
99	0xbd5068f9	-0.05088136
100	0x3d903769	0.07041819
101	0xbd755f07	-0.05990508
102	0xbd838316	-0.06421487
103	0xbd3c20e4	-0.045929804
104	0xbdc3fc03	-0.09569552
105	0xbd60a32c	-0.054843113
106	0x3d2a00d6	0.041504703
107	0x3da989d5	0.082782425
108	0xbd397980	-0.045281887
109	0xbd619195	-0.05507048
110	0xbd9d6b03	-0.076864265
111	0xbd9eae66	-0.077481076
112	0x3d21b82c	0.03948228
113	0xbda82c24	-0.08211544
114	0xbb6c192a	-0.003602574
115	0xbd3e1a27	-0.04641166
116	0x3a89ef4a	0.0010523584
117	0xbdde5669	-0.10856325
118	0x3d7e4bc7	0.062083986
119	0xbaf08c96	-0.0018352445
120	0xbd367538	-0.044545382
121	0x3b2d16b9	0.002641125
122	0xbd331883	-0.043724548
123	0x3d7772d9	0.06041226
124	0x3ddaa59f	0.10676121
125	0x3c04dd4b	0.008109401
126	0xbd880ad8	-0.06642693
127	0x3d288908	0.04114631
128	0x3d0215ea	0.03175918
129	0xbc56ae24	-0.013103042
130	0x3d72c6a5	0.059271473
131	0xbdb896d9	-0.09013147
132	0x3cccc36a	0.024995524
133	0xbde8076f	-0.11329543
134	0xbd3fe480	-0.046848774
135	0x3d39bac6	0.045344137
136	0xbdc295ff	-0.09501266
137	0x3d5390ac	0.05165164
138	0x3dbf12a2	0.09329726
139	0xbcff8100	-0.031189442
140	0xbb3b44c4	-0.0028574923
141	0xbdce1ab1	-0.10063685
142	0x3db3e1a5	0.08783273
143	0xbd702fec	-0.05863945
144	0x3d7a5229	0.06111351
145	0xbd80ed12	-0.062952176
146	0x3ddbadca	0.10726507
147	0xbdb3efd7	-0.0878598
148	0xbdbfd49f	-0.09366726
149	0xbc8eb459	-0.01741998
150	0xbde4854f	-0.11158239
151	0x3d92d1b5	0.07168905
152	0xbc46a1cb	-0.012123535
153	0xbdcaac36	-0.09896128
154	0xbc046031	-0.008079574
155	0xbd4ae93d	-0.04953884
156	0x3de5d3a3	0.11222007
157	0x3d4b6397	0.049655523
158	0x3dd58489	0.1042567
159	0x3cd29abf	0.025708554
160	0x3dee23e1	0.11627937
161	0x3d3ad529	0.04561344
162	0x3dc9a506	0.09845929
163	0xbde8b861	-0.113632925
164	0xbd592728	-0.053015858
165	0xbdb46458	-0.088082016
166	0x3dc3cc20	0.09560418
167	0xbdf6bee6	-0.1204813
168	0xbd42205c	-0.04739414
169	0xbd80b24a	-0.06284006
170	0xbdc74522	-0.09729983
171	0x3bd06c81	0.006360591
172	0xbdd7aacf	-0.10530626
173	0x3caa2341	0.020768763
174	0xbd93e8fc	-0.072221726
175	0x3d810c56	0.06301181
176	0xbcca5772	-0.0246999
177	0x3dd851a8	0.1056245
178	0x3b8e08f2	0.0043345625
179	0x3ca4f7cb	0.020137688
180	0xbc87b3fa	-0.016565312
181	0xbda96173	-0.0827054
182	0x3dd739e4	0.10509089
183	0xbd3b2217	-0.045686807
184	0xbd421ded	-0.04739182
185	0x3d321009	0.043472324
186	0x3db53fcf	0.08850061
187	0x3db56fad	0.08859191
188	0xbc41324d	-0.011791778
189	0xbd053cfe	-0.03252887
190	0xbdae917b	-0.08523842
191	0x3bf4226b	0.007450392
192	0x3d732ccc	0.059368894
193	0xbdc43660	-0.09580684
194	0xbcd4b56c	-0.025965415
195	0x3d72ef5a	0.059310295
196	0xbd60787f	-0.054802414
197	0x3d88ab52	0.06673302
198	0x3cc9cbbb	0.02463328
199	0xbdd269af	-0.10274064
200	0x3dad8f92	0.084746495
201	0x3d06ae1b	0.032880884
202	0x3d9635e4	0.073344976
203	0xbe00727e	-0.12543675
204	0x3da50ff7	0.08059686
205	0xbdd98e08	-0.106227934
206	0x3c523a93	0.012831348
207	0x3d81a9f6	0.063312456
208	0x3d862582	0.06550123
209	0x3c1604d3	0.009156424
210	0xbd9122a0	-0.07086682
211	0xbdd559a0	-0.10417485
212	0x3db07d03	0.08617594
213	0xbdcb96f7	-0.09940904
214	0x3d3c1c3d	0.045925368
215	0xbdc74c08	-0.09731299
216	0x3d4be8ea	0.04978267
217	0x3de048fd	0.109514214
218	0xbd057971	-0.03258652
219	0xbdd849d8	-0.105609596
220	0x3cf14dd2	0.029456053
221	0x3ddba1c9	0.107242174
222	0x3ddf9ba7	0.1091836
223	0x3d9ab2fd	0.075536706
224	0xbcc5822f	-0.024109928
225	0x3d72e021	0.059295777
226	0x3d1bd9e1	0.038049582
227	0x3dd884f3	0.10572233
228	0xbccb1543	-0.024790412
229	0xbddcb9ab	-0.10777601
230	0x3c90f3cc	0.017694376
231	0xbd9cbd87	-0.07653337
232	0x3dbae794	0.09126201
233	0xbd46d11f	-0.048539277
234	0x3dec1a7d	0.1152849
235	0x3d89be45	0.06725744
236	0xbdaaa425	-0.08332089
237	0xbdb168c1	-0.08662558
238	0x3daff7b7	0.0859217
239	0xbb3e00d6	-0.0028992197
240	0x3da87512	0.082254544
241	0x3d80deca	0.06292494
242	0x3d967c49	0.07347924
243	0xbdd251b0	-0.10269487
244	0xbde90cf5	-0.113794245
245	0xbd387c6d	-0.045040537
246	0xbd97fb63	-0.07420995
247	0x3dc885fe	0.09791182
248	0xbd4bad98	-0.0497261
249	0x3d8e3247	0.069431834
250	0xbd7c55a9	-0.06160513
251	0xbddd83cc	-0.10816154
252	0xbdcda7dd	-0.10041783
253	0xbd7c237e	-0.061557285
254	0xbdeabcc4	-0.114617854
255	0x3dd959d3	0.10612836

conv2.bias f4 [16]
0	0x3d34f75a	0.044181205
1	0xb9dbbee7	-0.00041913168
2	0xbcfc64bc	-0.030809753
3	0x3ba22378	0.004948076
4	0x3d2fa57c	0.042882428
5	0xba5c3920	-0.0008400846
6	0x3d0b8857	0.03406557
7	0x39bfe05c	0.0003659752
8	0xbcefdca0	-0.029280007
9	0x3c86751f	0.01641327
10	0xbc70b5bc	-0.014691766
11	0x3d3f89df	0.046762343
12	0xbd0fb9bc	-0.03508924
13	0xbbce5e53	-0.0062978654
14	0x3a7b197d	0.0009578688
15	0x3cb1569e	0.021647748

bn2.weight f4 [16]
0	0x3f7d0de6	0.9884933
1	0x3f7830e5	0.9694961
2	0x3f7b77e3	0.9822981
3	0x3f7a8a59	0.9786735
4	0x3f7cc50f	0.9873819
5	0x3f77f27b	0.9685437
6	0x3f7bb26e	0.9831914
7	0x3f7ba8b8	0.9830432
8	0x3f7a715e	0.97829235
9	0x3f7a77da	0.9783913
10	0x3f786164	0.97023606
11	0x3f752c93	0.9577114
12	0x3f7f260f	0.9966745
13	0x3f748f76	0.95531404
14	0x3f7831b3	0.96950835
15	0x3f7f34ed	0.99690133

bn2.bias f4 [16]
0	0x3afe05a9	0.0019380349
1	0xbb0d2d18	-0.002154177
2	0xbb5cfcae	-0.0033719945
3	0xbc15a9a4	-0.009134684
4	0xba2838dd	-0.00064171647
5	0xbc08e647	-0.008355684
6	0xbc5a2b5e	-0.013316004
7	0x3ad83d3a	0.0016497739
8	0xbbd907ca	-0.006623243
9	0xb96ff3e6	-0.00022883675
10	0xbc0b71ab	-0.008510987
11	0x3bb171b8	0.0054151677
12	0x3a3c4f84	0.00071834796
13	0x3a7cdc15	0.0009645832
14	0x3c0e5cae	0.008689089
15	0xbb626392	-0.0034544212

bn2.running_mean f4 [16]
0	0x3e0bb393	0.13642721
1	0xbf068952	-0.52553284
2	0xbe4c0ddb	-0.1992716
3	0x3d7d2dd1	0.061811272
4	0xbeb01ef0	-0.34398603
5	0xbd8218ea	-0.06352408
6	0x3efe5700	0.4967575
7	0xbce8c1ee	-0.028412785
8	0x3e9db983	0.30805597
9	0x3d945d88	0.07244402
10	0xbcac418d	-0.02102735
11	0xbd74365b	-0.05962215
12	0xbe9e6540	-0.30936623
13	0xbe5f58b7	-0.21811186
14	0xbe0673f9	-0.13130178
15	0xbe2bbaf8	-0.16770542

bn2.running_var f4 [16]
0	0x3dc060a9	0.093934365
1	0x3ed3d578	0.413738
2	0x3d4f04b5	0.0505416
3	0x3d74b1f9	0.05974004
4	0x3dfd4f61	0.12368656
5	0x3e46f4c0	0.19429302
6	0x3d2ffd92	0.042966433
7	0x3e2d3470	0.16914535
8	0x3e043dfa	0.12914267
9	0x3db207ee	0.08692919
10	0x3d455247	0.04817417
11	0x3da15178	0.07876867
12	0x3e09d6ab	0.13460796
13	0x3de25612	0.11051573
14	0x3dbf0d12	0.09328665
15	0x3d5b225a	0.053499557

conv3.weight f4 [32, 16, 3, 3]
0	0x3c79dedb	0.015250887
1	0xbd6c71dd	-0.057725776
2	0xbd323028	-0.043502957
3	0x3d3350c7	0.043778207
4	0x3d631891	0.05544335
5	0x3d740a6e	0.05958026
6	0x3c715a24	0.014730964
7	0xbc720912	-0.01477267
8	0x3d0443d8	0.032291263
9	0xbce41b02	-0.02784491
10	0x3d953fe9	0.072875805
11	0x3d5f3923	0.05449785
12	0xbc05e68c	-0.008172642
13	0xbd9c4ff1	-0.07632435
14	0x3c991df4	0.01869104
15	0xbd69684e	-0.05698424
16	0x3d48df7a	0.04904125
17	0xbc883e16	-0.016631167
18	0xbda92eb1	-0.08260859
19	0x3d6f6407	0.058445003
20	0xbd1a33ad	-0.037646938
21	0xbda72905	-0.08162121
22	0xbcb6f274	-0.022332408
23	0x3d12dc22	0.035854466
24	0x3d6b2f93	0.057418417
25	0x3d5f7421	0.05455411
26	0xbd932bf1	-0.071861155
27	0xbd0b4521	-0.034001473
28	0xbd917e4e	-0.07104169
29	0x3d530d9f	0.051526662
30	0x3c9feed8	0.01952307
31	0x3a4d182c	0.0007823731
32	0xbd833ac9	-0.06407697
33	0x3c84e6a2	0.016223256
34	0x3da90810	0.08253491
35	0xbd0e35c5	-0.034719247
36	0xbd1e7434	-0.03868504
37	0xbd77fe89	-0.060545478
38	0xbaa72724	-0.0012752754
39	0xbcf99005	-0.030464182
40	0x3d763008	0.0601044
41	0x3d816a79	0.06319136
42	0x3b6f41d9	0.0036507754
43	0xbd21be98	-0.039488405
44	0x3d95273f	0.07282876
45	0x3c654ea5	0.013995801
46	0x3d79eda5	0.06101765
47	0xbd5ce341	-0.053927664
48	0x3c52e5aa	0.012872139
49	0xbd82d62c	-0.06388506
50	0xbd0dd31d	-0.03462516
51	0x3c817531	0.015802952
52	0xbcd71396	-0.026254456
53	0x3cd24440	0.02566731
54	0xbcd1e3fb	-0.025621405
55	0xbc4b53cc	-0.012410115
56	0x3c4691af	0.012119695
57	0xbd81f6d8	-0.0634591
58	0x3d90f6b2	0.070783034
59	0x3da4428e	0.08020507
60	0x3d081ba5	0.03322949
61	0x3d035cb6	0.032070838
62	0xbbc3e9f6	-0.005978818
63	0x3d7f0858	0.062263817
64	0xbd2cd1ea	-0.042192377
65	0xbc646447	-0.013939924
66	0x3ce40da6	0.02783854
67	0xbd6d0c96	-0.05787333
68	0x3c332023	0.010932955
69	0xbd139cf2	-0.036038347
70	0xbd5e6e9c	-0.054304704
71	0x3cc65a76	0.024213057
72	0x3c26f67f	0.010190605
73	0x3d905958	0.07048291
74	0x3da740e6	0.08166675
75	0xbd22bb7f	-0.03972959
76	0xbd75345f	-0.059864398
77	0x3d995539	0.07486958
78	0xbc3a4387	-0.011368639
79	0x3d5218e1	0.051293258
80	0xbd917d3d	-0.071039654
81	0xbd06a83c	-0.032875285
82	0x3d90067e	0.07032488
83	0xbd22ae47	-0.039716985
84	0x3d5fa863	0.054603945
85	0xbd9a86c6	-0.07545237
86	0xbd829dce	-0.06377755
87	0xbc6b8e77	-0.014377228
88	0x3c967d53	0.018370306
89	0x3c233b09	0.009962806
90	0xbd55dd20	-0.052212834
91	0x3d9c06f2	0.07618512
92	0x3d77873c	0.060431704
93	0x3da343c6	0.07971911
94	0xb9fda9bc	-0.00048382382
95	0xbd6c0157	-0.057618465
96	0x3db7c9c5	0.08974031
97	0xbc4ba280	-0.01242888
98	0x3d9c9c80	0.076470375
99	0x3cb57fa2	0.022155587
100	0xbcc4d1b5	-0.024025777
101	0x3d13bb03	0.03606702
102	0x3d868a3a	0.065693334
103	0xbd88cba7	-0.066794686
104	0x3d9cb1f9	0.07651133
105	0x3ca0291b	0.01955085
106	0xbd730857	-0.059334125
107	0x3d2ec892	0.042671748
108	0x3da6906b	0.08133014
109	0xbcadb7f0	-0.021205872
110	0x3db6f0f3	0.08932676
111	0x39d9a51e	0.00041512487
112	0x3d3c96c6	0.046042226
113	0x3dbf22f7	0.09332841
114	0x3a242b63	0.00062625686
115	0x3c8489c1	0.016178967
116	0x3d2adbdc	0.04171358
117	0xbd715cbd	-0.058926333
118	0x3d450d53	0.04810841
119	0xbd914f22	-0.070951715
120	0x3d526cbf	0.05137324
121	0x3ce49974	0.027905203
122	0xbca93eff	-0.020659922
123	0x3d5d4174	0.0540175
124	0xbd682739	-0.05667803
125	0x3d899f88	0.06719881
126	0xbd700113	-0.058594774
127	0xbd0b2f5c	-0.033980712
128	0x3ceb9ac4	0.028760321
129	0xbd97b077	-0.07406705
130	0xbbe0c031	-0.0068588485
131	0xbc6994a8	-0.014256634
132	0xbacc7306	-0.0015598244
133	0x3cdf2d43	0.027243262
134	0xbcda8328	-0.026673868
135	0xbc9dcbae	-0.019262161
136	0x3c98442e	0.018587198
137	0x3d90faea	0.07079108
138	0xbd54e801	-0.05197907
139	0xbd6ad396	-0.05733069
140	0xbc34fbfc	-0.011046406
141	0xba8c04f3	-0.0010682627
142	0x3d6f7b0a	0.05846695
143	0xbca715cf	-0.020396141
144	0xbc9f5fca	-0.019454855
145	0xbceb84ed	-0.028749907
146	0x3d4b45a9	0.04962698
147	0xbbfb5a70	-0.007670693
148	0x3c9ae616	0.018908542
149	0x3d58dfd9	0.052947853
150	0x3b51ff87	0.0032043175
151	0xbd8bf5a3	-0.06833961
152	0xbd4a79f7	-0.04943272
153	0x3b5c2a38	0.00335945
154	0x3ca34afa	0.019933213
155	0x3d4b6089	0.04965261
156	0xbc610b65	-0.013735627
157	0x3ac5673b	0.0015060672
158	0xbd50efac	-0.05100982
159	0xbd26736f	-0.04063743
160	0x3c9be2e8	0.019029096
161	0xbd674484	-0.056461826
162	0x3d6f0643	0.05835558
163	0x3c2131ca	0.009838531
164	0xbc012b39	-0.00788384
165	0x3d6c703b	0.05772422
166	0xbd5d6286	-0.054049037
167	0x3d6092f9	0.054827664
168	0x3ccfedb0	0.025381893
169	0x3d91ca8c	0.07118711
170	0x3d9b47ab	0.07582029
171	0xbd3f1ed1	-0.04666025
172	0xbd6a3759	-0.05718169
173	0xba6e07d3	-0.00090801454
174	0x3ca25f31	0.019820781
175	0xbd7c9e23	-0.06167425
176	0xbdabfbd9	-0.083976455
177	0xbd87c4a3	-0.06629302
178	0x3cd1970a	0.025584716
179	0xbc423d18	-0.011855386
180	0x3db7a710	0.089674115
181	0x3db5cfd2	0.08877529
182	0xbca66bd9	-0.020315098
183	0x3d6f51b6	0.058427535
184	0x3bfc63e5	0.007702338
185	0x3d8add3c	0.06780478
186	0x3d024e42	0.031812914
187	0x3cd2cee4	0.025733419
188	0x3cffe5a3	0.031237429
189	0xbcb6e160	-0.022324264
190	0xbd27df90	-0.04098469
191	0x3c2c79fb	0.010527129
192	0x3d77d9fe	0.060510628
193	0xbd8531c8	-0.06503636
194	0x3daa47e1	0.08314491
195	0xbd85e024	-0.06536892
196	0xbd8fca2f	-0.07020985
197	0xbd431e19	-0.047636125
198	0xbb2d1806	-0.0026412024
199	0xbc694855	-0.014238437
200	0x3cdbe7af	0.026843874
201	0xbd971fc7	-0.07379108
202	0xbca3ae4d	-0.019980574
203	0x3d8d6bd0	0.06905329
204	0xbd85886d	-0.06520162
205	0xbd1181fb	-0.03552435
206	0xbd93c01f	-0.072143786
207	0xbd8c121b	-0.06839391
208	0xbd43a6c4	-0.047766462
209	0x3c45df32	0.01207714
210	0x3d80966e	0.06278692
211	0xbc4f8e64	-0.012668226
212	0xbd32f9a7	-0.04369512
213	0xbcfb90a5	-0.03070862
214	0xbcaca4b0	-0.021074623
215	0xbd209387	-0.039203193
216	0x3d04785f	0.032341357
217	0x3c6d84de	0.01449701
218	0x3c9c2568	0.019060805
219	0x3ce05bb5	0.02738748
220	0xbc9f8623	-0.019473141
221	0xbd65c53f	-0.05609631
222	0xbc555d7f	-0.0130227795
223	0xbda345a1	-0.07972265
224	0x3d47c715	0.048773844
225	0xbc7d8ac7	-0.015474982
226	0x3d6c955f	0.05775964
227	0x3d50f5eb	0.051015776
228	0xbcb0a4db	-0.021562984
229	0xbcf7985c	-0.030224018
230	0x3d1d47a3	0.038398396
231	0x3c188e40	0.009311259
232	0x3d943b2d	0.072378494
233	0xbd5855d8	-0.052816242
234	0xbbc75474	-0.0060830656
235	0x3d7fc838	0.062446803
236	0xbd8bafa5	-0.06820611
237	0xbd853f09	-0.065061636
238	0xbd2218e0	-0.039574504
239	0x3d8cecea	0.06881125
240	0xbd237854	-0.039909676
241	0xbd5aeb1c	-0.053446874
242	0x3d43cb91	0.047801558
243	0xbb9e8f72	-0.0048388774
244	0xbc8162f9	-0.015794264
245	0x3c9e5d86	0.019331705
246	0x3d5c7f5a	0.05383239
247	0x3c36f182	0.011165978
248	0x3d246fd4	0.04014571
249	0x3c20d0e6	0.00981543
250	0x3cdd9ab4	0.027051307
251	0x3d446585	0.04794838
252	0xbd48cc79	-0.049023125
253	0xbdb1ac1f	-0.086754076
254	0x3cf9f322	0.030511443
255	0x3c1701f8	0.009216778

conv3.bias f4 [32]
0	0x393bb4a8	0.0001790101
1	0xb88d6478	-6.742118e-05
2	0xbcdb5244	-0.026772626
3	0xba88d2e4	-0.0010438827
4	0xb8c1f4af	-9.248533e-05
5	0x3ca3f1f4	0.020012833
6	0xb8adde6d	-8.290713e-05
7	0x3cbad039	0.022804366
8	0x3c87d077	0.016578896
9	0x39def255	0.0004252369
10	0x3cb7a1ce	0.022416022
11	0x3b67ee65	0.0035389897
12	0x397c5fe7	0.00024068319
13	0xb99b64a3	-0.00029638884
14	0xb79d38da	-1.8742332e-05
15	0x3a02a43d	0.000498358
16	0x3b0e9452	0.0021755886
17	0xba247837	-0.0006274017
18	0x3a8135a1	0.0009857902
19	0x3bedc3bd	0.007256
20	0x3a943133	0.0011306166
21	0xbcbf1307	-0.023324503
22	0xbc3c8c27	-0.011508024
23	0xbc8fdd7b	-0.017561665
24	0xb98c52d3	-0.0002676459
25	0xbc978d61	-0.018500032
26	0x389157e0	6.930507e-05
27	0xbcfaf314	-0.030633487
28	0xbcd86082	-0.026413206
29	0x3cfdccf8	0.030981526
30	0xbcbd7117	-0.023125215
31	0x3ca2b32d	0.019860828

bn3.weight f4 [32]
0	0x3f7fd422	0.99933064
1	0x3f7c991c	0.98671126
2	0x3f79eea4	0.9762976
3	0x3f765214	0.9621899
4	0x3f7e1b24	0.99260163
5	0x3f7ab5bf	0.9793357
6	0x3f7cbeac	0.9872844
7	0x3f7b6725	0.9820426
8	0x3f79c677	0.9756846
9	0x3f771e15	0.96530277
10	0x3f793c9c	0.9735811
11	0x3f7cbb58	0.98723364
12	0x3f7b1488	0.98078203
13	0x3f7b2369	0.98100907
14	0x3f7f176f	0.9964513
15	0x3f76d8cc	0.96424556
16	0x3f7b7e1d	0.9823931
17	0x3f7910e4	0.972914
18	0x3f7d1f2c	0.9887569
19	0x3f7c56f7	0.985702
20	0x3f80807e	1.0039213
21	0x3f78d792	0.97203934
22	0x3f7d6fe8	0.9899888
23	0x3f7941e2	0.97366154
24	0x3f7981d6	0.9746374
25	0x3f79efe6	0.9763168
26	0x3f770054	0.96484876
27	0x3f76c6c9	0.9639707
28	0x3f7c0ae9	0.9845415
29	0x3f7939b7	0.9735369
30	0x3f7fb60e	0.9988717
31	0x3f762a45	0.9615825

bn3.bias f4 [32]
0	0x3b3b3770	0.002856698
1	0xbbdd92ea	-0.0067618983
2	0xbbb937e8	-0.0056524165
3	0xbc3098d3	-0.010778624
4	0x3bc7bd69	0.0060955775
5	0x3b8a4950	0.0042201653
6	0x39c7f5a2	0.00038139248
7	0x3ba190ff	0.004930615
8	0xbbef50b2	-0.007303321
9	0xbc1fdca5	-0.009757196
10	0xbbb9ae1f	-0.005666509
11	0xbaf67970	-0.0018804502
12	0xbc0881c3	-0.008331719
13	0x3ba0f6c0	0.0049122274
14	0x3bd8e87b	0.0066195107
15	0xbc1225f7	-0.008920184
16	0xbbc14337	-0.005897905
17	0xbb516e15	-0.0031956483
18	0xba0ffb43	-0.0005492458
19	0xbbb4ea59	-0.0055211005
20	0x3bbd776d	0.005782059
21	0xbab156b4	-0.0013529868
22	0x3b8c5d46	0.00428358
23	0xba00d992	-0.0004915233
24	0xbbdf6580	-0.0068175197
25	0xbb6474d6	-0.0034859679
26	0xbb0e051a	-0.0021670521
27	0xbc4597ac	-0.012060087
28	0x3b119e86	0.0022219731
29	0x3aa1c80e	0.0012342946
30	0x3b4e7027	0.0031499953
31	0xbc841cee	-0.016127076

bn3.running_mean f4 [32]
0	0x3e848dbd	0.25889388
1	0x3bd9b5c1	0.006643981
2	0xbe3dbfe6	-0.18530235
3	0xbec3aa6c	-0.3821596
4	0x3e950ebd	0.29112807
5	0xbda01dd2	-0.07818188
6	0xbe26a888	-0.16275227
7	0x3eb5f083	0.35535058
8	0x3f007372	0.50176156
9	0x3ecba1bc	0.3977183
10	0xbea4a0a0	-0.32153797
11	0xbdac316a	-0.084078625
12	0x3efdc4d2	0.49564224
13	0x3ea56ae0	0.32308102
14	0x3d1daa99	0.038492773
15	0xbf19ddcb	-0.60104054
16	0x3c55342d	0.013012928
17	0x3d2a0c82	0.041515835
18	0xbec072ca	-0.37587577
19	0x3e0363ae	0.12830994
20	0x3e0d10df	0.13775967
21	0x3e88e4f1	0.26737168
22	0x3e034292	0.12818363
23	0xbd133fd6	-0.03594955
24	0xbe269b83	-0.1627026
25	0xbf0f510c	-0.5598304
26	0xbe104f7d	-0.14092822
27	0xbebae884	-0.3650552
28	0xbed2a824	-0.41143906
29	0x3eac9f35	0.33715215
30	0x3e270baa	0.16313043
31	0xbe61bd59	-0.22044887

bn3.running_var f4 [32]
0	0x3e91dbcc	0.28488004
1	0x3edbb1dd	0.42909136
2	0x3dbfe8c3	0.09370568
3	0x3ed398a5	0.41327396
4	0x3ea737ca	0.3265975
5	0x3e7e8c8d	0.24858303
6	0x3ea77536	0.32706612
7	0x3ea9de1a	0.33177263
8	0x3e6fa4fd	0.23402782
9	0x3dc50d4b	0.09621676
10	0x3e3908fb	0.18069832
11	0x3e8cd8d8	0.2750919
12	0x3e7fc9fd	0.24979396
13	0x3e3dd381	0.18537714
14	0x3ec62cc5	0.3870603
15	0x3ee98b57	0.4561412
16	0x3e8e2ba4	0.2776767
17	0x3df660d0	0.12030184
18	0x3f4af029	0.79272705
19	0x3ee3977b	0.44451508
20	0x3f04de51	0.5190173
21	0x3e863662	0.26213366
22	0x3e66a76e	0.22524807
23	0x3e92e1b1	0.28687814
24	0x3e322710	0.17397714
25	0x3ea65ca2	0.32492548
26	0x3eaebcf2	0.3412853
27	0x3e288276	0.16456017
28	0x3e9664ac	0.29373682
29	0x3e0b78ba	0.13620272
30	0x3e5bc742	0.2146273
31	0x3e072b1b	0.13200037

fc1.weight f4 [1, 8192]
0	0xbc16b581	-0.009198547
1	0xbbc93d4a	-0.0061413394
2	0x3c57a40f	0.013161673
3	0xbad2051d	-0.0016023252
4	0xbb30946b	-0.0026943933
5	0x3b00613e	0.001958921
6	0x3c38d478	0.011281125
7	0x3c91e7af	0.01781067
8	0x3cbf2411	0.023332627
9	0xbb9f73fa	-0.0048661204
10	0x3a98e024	0.0011663479
11	0x3c7682db	0.015045847
12	0x3c1324bf	0.008980929
13	0x3c0efc23	0.008727106
14	0xbc4cf906	-0.012510544
15	0x3b92fa2b	0.0044853888
16	0x3bab7871	0.0052328636
17	0x3bc336b8	0.0059574507
18	0x3b40e87c	0.0029435446
19	0xbc19df26	-0.009391582
20	0x3a565f45	0.00081776484
21	0x3c8eea69	0.01744576
22	0x3c889935	0.016674617
23	0x3c21feb1	0.009887383
24	0x3cb5ee9b	0.022208503
25	0x3c6880a0	0.014190823
26	0x3bce2141	0.0062905853
27	0x3c572f8b	0.013133894
28	0x3bb5fd7e	0.0055539003
29	0xbc3034f8	-0.010754816
30	0xbb641c47	-0.0034806894
31	0x3ab64d90	0.0013908613
32	0xbb006e38	-0.0019596945
33	0x3b2ea82f	0.0026650538
34	0xba9d8173	-0.0012016728
35	0x3ab55fa8	0.0013837712
36	0x3c80bbb7	0.01571451
37	0xb6f5c154	-7.3240753e-06
38	0x3ac3cbd2	0.0014938063
39	0x3c3656c6	0.011129087
40	0x3a88383b	0.0010392735
41	0x3c1c2396	0.009529969
42	0x3c8f2154	0.017471947
43	0x3c21c506	0.009873634
44	0x3bc3c919	0.0059749004
45	0x3c189ff1	0.009315477
46	0x3b43c036	0.0029869205
47	0xbb902dd3	-0.004399994
48	0xb9bb9f81	-0.0003578626
49	0x3c7a8c7c	0.015292283
50	0x3b896b7f	0.0041937227
51	0x3c12ff4b	0.008971999
52	0x3c5aaa27	0.013346232
53	0x3bb43f4f	0.005500711
54	0x3c955ddd	0.018233234
55	0x3b543971	0.003238287
56	0x3cb6a276	0.022294264
57	0x3c39afec	0.011333447
58	0x3c9fc834	0.019504644
59	0x3c6b9b5d	0.014380303
60	0x3a4e9ec5	0.0007881935
61	0x3c79a49b	0.015236999
62	0x3c1cb148	0.0095637515
63	0x3bd2d0e4	0.006433593
64	0x3a2742f1	0.00063805195
65	0x3c8a453b	0.016878715
66	0x3c57b3cc	0.0131654255
67	0x3bb89824	0.005633371
68	0x3c921807	0.017833723
69	0x3c9e0f40	0.019294381
70	0x3c43073d	0.011903581
71	0x3bcaf6d7	0.0061939764
72	0x3bff87c6	0.007798168
73	0x3cb6f919	0.022335576
74	0x3c99ca9b	0.018773368
75	0x3c78ccc4	0.015185539
76	0x3cafdd46	0.021467816
77	0x3c47db34	0.012198258
78	0x3c1381b3	0.009003091
79	0x3c197811	0.009367005
80	0xb96213e6	-0.00021560452
81	0x3beb0390	0.0071720555
82	0x3bb302e5	0.0054629915
83	0x3c34cfbd	0.011035857
84	0x3b8ea1e0	0.004352793
85	0x3c77ead6	0.015131673
86	0x3acbe4d1	0.0015555864
87	0x3cad69c8	0.021168604
88	0x3c930d59	0.0179507
89	0x3c1e7f55	0.009673913
90	0x3c3d4c09	0.011553773
91	0x3c2a6f35	0.01040249
92	0x3b2a5c95	0.0025995125
93	0x3c00ae30	0.00785403
94	0x3bc03f90	0.0058669522
95	0xbac44c54	-0.0014976361
96	0x3b4b28d0	0.0030999668
97	0x3c746661	0.014916987
98	0x3b81ee6c	0.0039651897
99	0x3c05d52b	0.008168499
100	0x3c3205e3	0.010865661
101	0x3cb1fe38	0.021727666
102	0x3c6d55a3	0.014485749
103	0x3a9abde1	0.0011805856
104	0x3cb30155	0.021851221
105	0x3cbe62f7	0.02324055
106	0x3c9e8d3d	0.019354457
107	0x3b726549	0.003698664
108	0x3b5146eb	0.003193314
109	0x3c8e75e1	0.017390193
110	0x3b36ba95	0.0027882208
111	0x3c3009b1	0.010744498
112	0x3c259ea5	0.010108625
113	0x3ca41be8	0.020032838
114	0x3b1f2474	0.0024283202
115	0x3bd74889	0.006569926
116	0x3c696aba	0.014246637
117	0x3c283042	0.010265412
118	0x3c5382c7	0.012909598
119	0x3c348971	0.011019097
120	0x3c94fcf5	0.018187026
121	0x3c078f0a	0.008273849
122	0x3c5a57bf	0.013326584
123	0x3c845039	0.016151534
124	0x3ba1cac4	0.0049375016
125	0x3c711699	0.01471486
126	0x3c2b140c	0.010441791
127	0x3be789db	0.007065994
128	0x3c1a3e52	0.009414272
129	0x3aa63256	0.0012679796
130	0x3b512ea2	0.0031918664
131	0x3bd6a184	0.006550016
132	0x3c6132c8	0.013745017
133	0x3bd642af	0.006538711
134	0x3cac2cde	0.021017488
135	0x3c73be58	0.014876924
136	0x3c6e2b4f	0.014536693
137	0x3c9233ee	0.017847028
138	0x3c0401b0	0.008057043
139	0x3cae997e	0.021313425
140	0x3b9f2d40	0.004857689
141	0x3bcb1b85	0.006198349
142	0x3c3d31dd	0.011547533
143	0x3caf0821	0.02136618
144	0x3c82903f	0.015937923
145	0x3b683d55	0.0035436947
146	0x3acd5ad8	0.0015667332
147	0x3bc72460	0.0060773343
148	0x3c912af0	0.01772067
149	0x3bf2b07f	0.007406294
150	0x3c83989d	0.016063983
151	0x3c849dd8	0.016188547
152	0x3bf4fc57	0.0074763703
153	0x3cafb4e2	0.021448556
154	0x3cba23a1	0.022722067
155	0x3ca21858	0.019786999
156	0x3c0be334	0.008538056
157	0x3ba90823	0.0051584407
158	0x3c9417ea	0.01807781
159	0x3a12edec	0.0005604911
160	0x3c1f097a	0.009706849
161	0x3b8be56d	0.004269293
162	0x3cb0b9c3	0.021572953
163	0x3cc7b279	0.024377095
164	0x39d70a3e	0.00041015627
165	0x3cae9570	0.021311492
166	0x3c10fd0f	0.008849396
167	0x3c761e08	0.015021808
168	0x3acf732f	0.0015827174
169	0x3ca25f00	0.01982069
170	0x3c7b0892	0.015321868
171	0x3c1437c9	0.009046503
172	0x3c1b47b5	0.0094775455
173	0x3a9e7a76	0.001209094
174	0x3c6986fc	0.014253374
175	0x393e08b4	0.00018123054
176	0xbb797eca	-0.0038069957
177	0xbbac48cd	-0.005257702
178	0x3c4a741b	0.012356783
179	0x3c8e5612	0.017375026
180	0x3ad9cc9e	0.0016616767
181	0x3c96af9d	0.018394286
182	0x3c32df9b	0.0109175695
183	0x3c9e4ae7	0.019322826
184	0x3c50aaaf	0.012736007
185	0x3c2e585d	0.010641185
186	0x3c81eb59	0.015859293
187	0x3b4d7f25	0.0031356302
188	0x3c740441	0.014893592
189	0x3a88ffac	0.0010452173
190	0x3c14a52c	0.009072583
191	0x3b8b3180	0.004247844
192	0x3a68ce3e	0.000888083
193	0x3be1fa9e	0.006896331
194	0xbb141a09	-0.0022598526
195	0x3c3e6a26	0.011621987
196	0x3bbc0d45	0.0057388865
197	0x3c930186	0.017945062
198	0x3c7ab7a1	0.01530257
199	0x3c81828c	0.01580932
200	0x3c62cb2d	0.013842386
201	0x3b8ac000	0.004234314
202	0x3c0df7ce	0.008665038
203	0x3b9efd47	0.0048519704
204	0x3c0172a7	0.00790087
205	0x3c39cfeb	0.011341075
206	0x3ba59661	0.005053327
207	0x3a886290	0.001040535
208	0x3b195f72	0.0023402837
209	0x3bec95f3	0.007220024
210	0x3c43cc17	0.011950514
211	0xba725571	-0.0009244299
212	0x3c31ae53	0.010844785
213	0x3c8c6150	0.017136246
214	0x3bca46ef	0.0061730067
215	0x3ca73ffc	0.020416252
216	0x3a99861a	0.0011712939
217	0x3bcb1c2c	0.0061984267
218	0x3be1515b	0.0068761534
219	0x3b6c6a12	0.0036073965
220	0x3c2f1d5d	0.010688153
221	0x3c0be4b8	0.0085384175
222	0x3bca8256	0.006180088
223	0xbc69bf41	-0.01426679
224	0x3bc58152	0.006027379
225	0xbb9317bf	-0.0044889147
226	0xbb554705	-0.0032543552
227	0x3c7f037f	0.015564798
228	0x3ca39a00	0.019970894
229	0x3b0cc7d7	0.0021481419
230	0x3c7eda1d	0.015554932
231	0x3add345c	0.0016876566
232	0x3c27a7b4	0.010232855
233	0x38c859f0	9.553495e-05
234	0x3bb9cb69	0.0056700003
235	0x3c7972dc	0.0152251385
236	0x3c5ed5e5	0.013600801
237	0x3ba4b98e	0.0050270027
238	0xb9a0dfa5	-0.00030684206
239	0xbb8cb505	-0.00429404
240	0xbc3368ce	-0.01095028
241	0x3bee58e9	0.0072737825
242	0xbb790837	-0.0037999281
243	0xbc0b4a6b	-0.008501629
244	0x3c8f29a1	0.017475905
245	0x3b83bbda	0.0040201964
246	0x3c3f95dc	0.011693444
247	0x3c01972a	0.0079095755
248	0x3bd468ff	0.006482243
249	0xbbea5bc1	-0.007152051
250	0xbabe5b9c	-0.0014523151
251	0xbc3ac088	-0.011398442
252	0xbc5151bf	-0.012775837
253	0x3baf060d	0.0053412975
254	0x3b3a844a	0.0028460198
255	0x3b1294b8	0.0022366475
