solar_detection/checkpoints/solar_roof_detector.pt (torch, 411025 bytes, 43 tensors)

conv1.weight f4 [16, 3, 3, 3]
000000 09 a3 65 bd 19 10 a1 3c 84 1f fa 3d ce bf b6 bc
       -0.056063686 0.019660996 0.122130424 -0.022308256
000010 53 f3 13 bd 32 85 04 be 48 ce 9c 3d d2 7c 2c bd
       -0.036120724 -0.12941435 0.076565325 -0.042111225
000020 62 40 3f 3e aa 65 d1 3d b4 d3 98 3c eb 1e 88 3c
       0.18676904 0.10224469 0.018655635 0.016616305
000030 b5 5f d7 3c 13 03 98 bd 10 de 87 bd a6 d8 11 be
       0.026290754 -0.07422461 -0.06634152 -0.14242801
000040 d8 cf 1c be 99 ed dd 3d ea 40 d9 bd 86 e2 35 be
       -0.15313661 0.10836334 -0.106080845 -0.17762193
000050 a5 a0 13 be 0d 4b 03 be bd c9 20 3d 40 c4 8b b9
       -0.1441675 -0.12821598 0.039254893 -0.00026658364
000060 60 41 d5 3b 6f 79 1c 3e 7f 30 07 3e 30 24 bd 3d
       0.0065080374 0.15280698 0.13202094 0.09235418
000070 22 36 2a be 64 c0 39 3e 60 60 a4 3d f3 03 21 be
       -0.16622213 0.18139797 0.080261946 -0.15724163
000080 37 0a 01 3d 16 16 ae 3d 7c 4d ec 3d 5e 7b f3 3d
       0.031503882 0.08500306 0.115382165 0.11888765
000090 27 35 00 3d bc 4e 11 be 72 b4 c1 bc f9 d7 16 3e
       0.03130069 -0.14190191 -0.023645613 0.14730825
0000a0 80 42 11 3e 7c 27 44 3c ff 6a 00 be f5 80 05 be
       0.14185524 0.011972304 -0.12540816 -0.13037474
0000b0 33 a2 7b 3d e4 98 8f 3d 41 52 32 3e ef 3e 1c 3e
       0.061433982 0.070115834 0.1741419 0.15258382
0000c0 4c c7 40 be 0d 11 e2 bd c4 8f 0a 3e 3b 95 c4 bd
       -0.18826026 -0.110384084 0.13531405 -0.09598776
0000d0 0e 70 54 bd 65 36 14 bd 0b 8a df 3d bf 01 17 be
       -0.051864676 -0.036184687 0.109150015 -0.1474676
0000e0 1e 5a 86 bc 34 4b 57 bd f0 d3 b7 3d 5d 7b 36 3d
       -0.016400393 -0.052561954 0.08975971 0.044551242
0000f0 7f fe 18 bd d8 70 a5 bc 6e 5d 2e 3e b2 58 6a 3c
       -0.03735208 -0.02019541 0.17027828 0.014303373
000100 92 c4 00 be a3 5f 2d be 20 5b 20 be 8c fd fb 3c
       -0.12574986 -0.16931014 -0.15659761 0.030760549
000110 3a 86 32 be ce 5d 1e be ab 2d c3 bd b1 69 06 bc
       -0.17434016 -0.15465471 -0.09530195 -0.00820391
000120 0c b6 19 bd 8f 61 d0 bd 87 3d b0 3d 4d 30 c5 3d
       -0.03752713 -0.10174858 0.086054854 0.09628353
000130 33 22 29 bd 1e ad 00 be 2c df 16 3e c2 f5 82 3d
       -0.04129238 -0.12566039 0.14733571 0.06394531
000140 5c 1a c3 bd 8b ec 11 3e 70 81 34 3c e4 83 a6 3d
       -0.09526512 0.1425039 0.011017188 0.08130625
000150 5f fb f5 bd 99 27 c7 3d 29 1e 53 bd b1 3c b5 bc
       -0.12010836 0.097243495 -0.051542435 -0.022123666
000160 f4 7b a3 3d 87 49 19 3e 82 08 a6 3d f9 df bd bd
       0.079826266 0.14969455 0.081070915 -0.09271235
000170 b3 41 ec bd 43 f3 2e be ec 2d 40 bc 2c 3a ba 3d
       -0.11535969 -0.17084984 -0.011729699 0.09093127
000180 d4 c6 cd 3d 2e c8 30 be a4 1a 85 3d bc 22 4a 3a
       0.10047689 -0.17263862 0.06499222 0.00077108643
000190 5d db 22 be e2 01 6e 3d 4e 36 6e 3b a8 33 1a be
       -0.15903993 0.058107264 0.0036348286 -0.15058768
0001a0 44 d0 25 3e 67 ce 2d bd b2 57 a2 3d 1a 2c 59 bd
       0.16192728 -0.04243317 0.07926883 -0.053020574
0001b0 a8 1c 16 bd fb ee 15 3e 87 05 1d 3e 17 76 56 bd
       -0.036648422 0.14641945 0.1533414 -0.052358713
0001c0 c8 e3 eb 3d a6 9e 64 3d 46 30 55 bd 2a ee 0a bd
       0.11518055 0.05581536 -0.05204799 -0.033918537
0001d0 c0 fd 06 be cb df de 3d 5a 87 1e 3e 4c c7 10 bd
       -0.13182735 0.10882529 0.1548132 -0.035346314
0001e0 c9 81 f3 bc dc 5b 5c 3d 31 0f 19 be c5 21 7f bd
       -0.029724972 0.05379854 -0.14947201 -0.062288065
0001f0 7e 8b 1e 3e 3f f3 f5 3d da 35 12 3e ed 5e 36 3e
       0.154829 0.12009286 0.14278355 0.17809649
000200 0e 2e c5 3d a0 5d 1d 3e b8 ac 10 3e e0 0b 94 ba
       0.09627925 0.15367746 0.14128387 -0.0011295043
000210 a7 e7 de 3d a2 ed bf bd a9 ef 5e bd 42 a3 ab bd
       0.10884028 -0.09371497 -0.054427776 -0.08380748
000220 4e 07 38 3e 94 d0 ba bc 7b ff 2f 3e 35 da 8e 3d
       0.17971537 -0.022804536 0.17187302 0.069752134
000230 9b 06 c0 3c ea ed a9 bd 9f d0 9f bd 8e 5b f5 3c
       0.02344065 -0.08297332 -0.07803463 0.029950883
000240 b8 b5 a5 bd 36 b1 e0 bd 95 f9 a2 bd cc e5 27 be
       -0.08091301 -0.109713 -0.0795776 -0.16396254
000250 7c e1 15 3d 2f e1 6d bd 87 79 9f bd fb dd 08 be
       0.03659199 -0.05807608 -0.077868514 -0.13365929
000260 f1 65 ea bd 52 b7 74 3c d0 8e 70 3d 61 2d 84 bd
       -0.11445225 0.014936285 0.058729947 -0.06453968
000270 07 32 e1 bd 0f 8b ee 3d 3f e7 45 be 55 ed 1b be
       -0.1099587 0.11647617 -0.19326495 -0.15227254
000280 8f ab bd 3d 31 4a 05 3e 4d 0f 15 3e e7 cb bc bd
       0.09261238 0.13016583 0.14556618 -0.09218579
000290 79 9a 20 3e 3d 9c cb 3d 01 38 b7 bd 62 3c 36 bb
       0.15683927 0.099419095 -0.08946229 -0.0027806987
0002a0 83 fa 97 bd e8 0b af 3d be 99 15 be 4a 0f 84 bd
       -0.07420828 0.08547193 -0.14609429 -0.06448229
0002b0 37 fc c4 ba 93 b3 4b bd 76 58 eb 3c c8 84 ab 3d
       -0.0015028779 -0.049731802 0.028728705 0.083749354
0002c0 a7 7c 04 be 46 de b3 bd 1e bd 9d bd b4 68 87 bd
       -0.12938176 -0.0878263 -0.07702087 -0.066117674
0002d0 64 56 21 bd 5d c4 0d 3e 5a 22 3f bd 8e 32 98 3b
       -0.03938903 0.13844438 -0.04666362 0.0046446985
0002e0 fa dc 1e be dd 82 18 be f6 23 0d be 20 c1 61 bd
       -0.15513983 -0.1489367 -0.1378325 -0.05511582
0002f0 9a 65 e3 bd 02 88 53 bd 03 96 10 3e 13 15 2b be
       -0.11103363 -0.05164338 0.14119725 -0.16707258
000300 fc be 81 bc f0 05 aa bd 51 ea 44 bb 88 53 a0 bd
       -0.015838139 -0.08301914 -0.003004689 -0.07828432
000310 66 40 ed 37 27 5f 8d bd db c4 c3 3d 5a 80 a1 bd
       2.828259e-05 -0.069029145 0.095590316 -0.07885809
000320 70 4f e2 bc f4 b8 9b 3d 27 bf 09 be d0 5a 82 3d
       -0.02762577 0.076036364 -0.13451825 0.06364977
000330 ba e6 88 3d 40 5e 18 3e 12 c6 8f 3d ea 07 37 be
       0.066846326 0.14879704 0.07020201 -0.17874113
000340 43 21 ba bd b3 6f 45 3d 12 ed 55 3d 7e ef d4 3d
       -0.090883754 0.048202228 0.05222804 0.10397242
000350 67 89 21 3d 48 de 08 3e 2a 53 0d 3e a1 7d 25 3e
       0.039437678 0.13366044 0.13801256 0.16161205
000360 4e 25 0e be 3a 25 c7 3c 05 7a e2 3d 13 07 42 3e
       -0.13881418 0.024309743 0.1105843 0.18948011
000370 f3 b2 36 3e f7 f9 31 3d d8 85 79 bd cc bc 14 be
       0.17841701 0.043451276 -0.06091866 -0.14525145
000380 50 9d 3c be 23 6d 3d be 3c 24 a0 3d 2a 6b b7 bd
       -0.18419385 -0.18498664 0.07819411 -0.08955987
000390 98 0e 4d bd eb ce 26 3d 77 64 c5 bc fa 09 a8 3d
       -0.050062746 0.040724676 -0.024095757 0.08205028
0003a0 45 2b 8a 3d 31 85 08 3e 90 8a a2 3c fb 27 f1 bc
       0.06746534 0.13332058 0.019841462 -0.02943801
0003b0 cc 84 9b bd af 2b 96 3b db 7e bf bd 8e 9e 12 3e
       -0.07593688 0.004582844 -0.09350368 0.14318296
0003c0 68 54 03 be 46 8b 2b be 44 47 b3 bd 99 40 12 be
       -0.12825167 -0.16752347 -0.08753827 -0.14282455
0003d0 96 c5 48 3d 87 0e 35 be 7b 8e 8e 3d 48 72 47 b9
       0.049016558 -0.17681323 0.0696077 -0.00019020692
0003e0 e3 e9 30 3e c3 54 af bd d7 46 29 be a3 b4 33 3e
       0.1727672 -0.08561089 -0.1653093 0.17549376
0003f0 d7 44 ee 3d 04 0c 37 be 13 49 d2 3c a2 69 a7 bc
       0.11634224 -0.17875677 0.02566961 -0.020436112

conv1.bias f4 [16]
000000 c2 52 26 3d 94 af ac bc ab 7e 04 be 00 bd ce bd
       0.040606268 -0.021079816 -0.12938945 -0.10094643
000010 b7 6e 99 bd 24 d7 0e be bf 65 90 3d ce a6 b8 bd
       -0.0749182 -0.13949257 0.070506565 -0.090161905
000020 ae d1 5a 3d 7b 69 c2 3d fd de 19 3e 10 11 6d ba
       0.053422622 0.09492775 0.1502647 -0.0009043375
000030 a5 6a 52 bb 67 15 26 3e af a7 83 bd b4 5a af 3b
       -0.0032107022 0.16219102 -0.064284675 0.005351389

bn1.weight f4 [16]
000000 ec 56 7e 3f 2d 6c 7e 3f 40 a9 7e 3f fc 9e 80 3f
       0.9935138 0.99383813 0.99477005 1.0048518
000010 f5 36 7f 3f 9a 01 7e 3f 19 06 7f 3f a2 0b 80 3f
       0.9969323 0.99221194 0.9961868 1.000355
000020 6c 33 7e 3f c9 e4 7e 3f c5 0f 80 3f 10 fc 7d 3f
       0.99297214 0.9956785 1.0004812 0.9921274
000030 01 b0 7d 3f bf 4b 7f 3f ef e7 7f 3f 0a 34 7e 3f
       0.99096686 0.99724954 0.9996328 0.99298155

bn1.bias f4 [16]
000000 26 70 d3 39 8f 09 29 ba 2c 15 d2 b9 97 c6 66 bb
       0.00040328613 -0.0006448263 -0.00040070096 -0.0035213584
000010 62 b8 95 3b 2c 77 a0 bb f7 8a 22 ba f4 b1 c8 bb
       0.0045690993 -0.004897019 -0.0006200517 -0.0061247293
000020 7c 3e 33 38 04 61 3c ba d9 4e e1 bb 38 74 01 bb
       4.273512e-05 -0.00071860873 -0.0068758545 -0.001975311
000030 c1 d3 51 bb 60 38 e0 bb 74 11 93 3b ee 99 3a bb
       -0.0032017084 -0.006842658 0.0044881646 -0.0028473097

bn1.running_mean f4 [16]
000000 b8 5b 16 3e 3e 8f 7c be 09 ec 71 3e 5a ad 18 be
       0.14683425 -0.24664018 0.23625197 -0.14909878
000010 81 34 1f bf ab 32 40 3e a8 1e e6 3e 8d 50 63 be
       -0.6218949 0.18769328 0.44945264 -0.22198696
000020 da 7c 3a 3e 9e 85 97 3e 86 04 eb 3c ed b7 d4 be
       0.1821169 0.2959413 0.02868868 -0.41546574
000030 c1 63 ae 3d 56 87 84 be d6 5c 5a 3e d6 73 98 3e
       0.0851512 -0.25884503 0.21324477 0.29775876

bn1.running_var f4 [16]
000000 5c 25 01 3d 71 10 2a 3d 44 65 13 3e 88 a3 82 3b
       0.03152977 0.041519586 0.14394099 0.0039867796
000010 25 c9 e3 3e 4c 18 0c 3e 99 ab 81 3e b7 46 92 3d
       0.444894 0.13681144 0.2532623 0.07142394
000020 af d6 4c 3d 45 29 0b 3d c5 9a fc 3b 1e 8b 3c 3e
       0.050009426 0.033974905 0.0077088797 0.18412444
000030 6f b7 c6 3b af 7f 10 3e 1b 6a a8 3d f0 12 a6 3d
       0.0060643475 0.14111207 0.08223363 0.08109081

conv2.weight f4 [32, 16, 3, 3]
000000 b3 9f 81 3d 0a 37 89 3d 25 4c cd bc ef 67 29 bd
       0.06329288 0.06699951 -0.025060723 -0.041358884
000010 b9 81 2b 3c b1 92 99 3c c9 f7 37 3d 5e b5 21 3d
       0.01046794 0.018746706 0.04491404 0.039479606
000020 1b 25 55 bb 49 c5 a3 3c 32 69 99 3d 2b 19 6d ba
       -0.0032523337 0.019991534 0.074907675 -0.0009044583
000030 58 96 f4 bc 9b ea a9 3d 91 31 a2 3d 40 91 9d 3c
       -0.029856846 0.082967006 0.0791961 0.0192343
000040 eb a8 94 3d 51 e2 8b 3d f9 24 10 bd 26 90 7e bc
       0.07258781 0.06830276 -0.03519151 -0.015537297
000050 21 37 37 bd 42 78 b3 bc b1 6d 5c bd 87 4e 11 bd
       -0.04473031 -0.02190793 -0.053815547 -0.03547528
000060 d0 e9 9d 3d d8 90 86 3d 4b 0a b7 bc 79 b6 f2 3c
       0.07710612 0.065705955 -0.022343775 0.029628025
000070 f8 c6 12 3d 68 a1 3a 3d b7 74 45 bd 10 50 9c 3d
       0.035834283 0.045564085 -0.04820701 0.07632458
000080 fe 3f 10 bc a7 85 90 bd 6d b5 97 bc 23 a0 4d bd
       -0.008804319 -0.07056742 -0.018519128 -0.050201546
000090 78 b1 a8 3d 78 d5 33 bc f9 73 96 bd e7 6c da 3b
       0.082369745 -0.010976188 -0.07346339 0.006665814
0000a0 05 ea f7 3c f9 63 96 bb 44 54 ea bc bb 6d 07 bd
       0.030262956 -0.0045895544 -0.028604634 -0.03306363
0000b0 cc 03 32 3c 75 1a 9a bd 87 df 32 3d 01 e2 40 bd
       0.010865163 -0.075245775 0.043670204 -0.047090534
0000c0 a8 ce 80 bd 64 a5 8d bd 62 bb e0 bb 49 6b 89 bc
       -0.062894166 -0.069163114 -0.0068582753 -0.01677479
0000d0 97 72 99 3d bd 3b c6 bc 5e 54 78 3d 6e bb 90 bd
       0.074925594 -0.024198407 0.060627334 -0.070669994
0000e0 e7 c6 16 3d 9b 4b 7e 3c 47 c6 86 3d 45 c8 40 bd
       0.03681078 0.015520955 0.06580787 -0.047065992
0000f0 32 42 65 3c 3c be 90 3d c3 72 b0 bb b1 f0 dd bc
       0.013992833 0.07067534 -0.0053847744 -0.02709231
000100 82 25 b1 3b 6b 9e 54 3c 21 36 d9 3c 3b 05 6f 3d
       0.0054060826 0.012977223 0.026515068 0.058354598
000110 3e 43 5a bd 78 75 9f 3d e2 b5 18 3c 64 d5 6e bd
       -0.053286783 0.07786077 0.009320708 -0.058308974
000120 be be f1 bb 9d bf 83 3d 49 f6 99 3c 66 e0 2c 3d
       -0.0073774746 0.06433032 0.018794196 0.04220619
000130 0a f1 a0 bd 74 3d 1b 3d 2f 66 ef bb 35 10 5a bd
       -0.078584746 0.037900403 -0.0073058824 -0.053238112
000140 0a ee f5 bc 40 f2 45 bd 82 a4 e3 bc 2c 98 81 3d
       -0.030020732 -0.04832673 -0.027788404 0.063278526
000150 dc 72 32 bc b7 5f b4 bc cb 08 57 bd 2d 74 0e 3d
       -0.010891642 -0.022018297 -0.05249862 0.034778763
000160 e6 80 90 3d 36 0e 12 3d 9a 18 4b 3d 21 b3 7e 3d
       0.070558354 0.035658084 0.04958401 0.06218255
000170 b9 0c 99 bb 43 ae 1e 3c ca 53 0f 3d 55 be a8 3c
       -0.004670706 0.009685102 0.034992017 0.02059857
000180 0b a4 58 3d 98 be 61 bd ce 3b 4e bc 90 7b c5 3c
       0.05289082 -0.055113405 -0.012587501 0.02410677
000190 5e 65 14 bd d4 1d 29 3d 43 11 84 3a d5 ee 64 3d
       -0.036229484 0.041288212 0.0010075945 0.05589183
0001a0 66 41 a2 3d e3 21 78 3d 30 0c 6b 3d 51 06 18 3d
       0.0792263 0.060579192 0.05738467 0.0371154
0001b0 c3 96 89 bd 7a c2 18 3d 3a b8 61 3d 80 f4 ed 3c
       -0.06718209 0.037294842 0.055107333 0.02904725
0001c0 f8 3c 8a bd 67 a9 96 3d fc af 56 bc 6c 66 af 3a
       -0.0674991 0.0735653 -0.013103481 0.0013381965
0001d0 7b 83 a3 3d 99 c4 a4 3d 52 d3 8e bd 27 0d 34 3d
       0.07984062 0.080453105 -0.069739 0.043957856
0001e0 f2 db 9f 3b e5 19 b2 3d d7 7b 86 3d 8c c6 80 3c
       0.0048785144 0.08696345 0.06566589 0.015719675
0001f0 63 40 90 3c fb 1f 92 3d 34 cc a1 3d ff 9c 02 bd
       0.017608827 0.07135006 0.07900277 -0.031888004
000200 02 a7 3b 3d 4c 9c a5 bd 13 81 c1 3c e9 10 a1 3d
       0.045813568 -0.08086452 0.023621118 0.078645535
000210 09 c8 7a bd 4e a6 56 bd d7 6e 92 3c e8 17 91 bd
       -0.061225925 -0.052404694 0.017875118 -0.07084638
000220 6b 53 42 bd d5 5f 36 3d 2a db 0e 3d d8 01 67 3d
       -0.047442835 0.044524986 0.03487698 0.056398243
000230 8a 8f cd bc 9c c2 67 3d 34 23 8c 3d b5 b7 18 bd
       -0.025092859 0.05658208 0.06842652 -0.03728457
000240 a0 bf 9f bc 53 e6 89 3d ca 8f 47 bd 04 f0 55 3d
       -0.019500554 0.06733384 -0.048721112 0.05223085
000250 c1 33 16 3d 46 01 b1 bc 0c 04 93 3d 45 57 73 3d
       0.03667045 -0.021607053 0.07178506 0.0594094
000260 b7 a5 39 bd 48 7d 0e bb b4 d4 b3 bc 6b ee 16 3d
       -0.045324054 -0.0021742154 -0.02195201 0.036848467
000270 96 0f ed 3c e5 b8 d0 3c af 73 22 bd e8 cc 9f 3d
       0.028938096 0.02547879 -0.039661106 0.07802755
000280 ea 24 7e 3d 8f 07 1c bd e9 12 83 3d 8f 1f 2b 3d
       0.062046923 -0.038093146 0.06400091 0.041778143
000290 a6 ba 0e 3d 08 87 a0 bc e4 8e 90 3d 44 1c 3e bd
       0.03484597 -0.019595638 0.07058504 -0.046413675
0002a0 7c c9 ea bc bf 5c 0c bd ca f2 19 bd 3f e2 ca 3b
       -0.028660528 -0.034268137 -0.037585057 0.0061915214
0002b0 98 d1 64 bb 47 77 60 bd 2b 06 93 3d ad cc 9f bd
       -0.0034914967 -0.05480125 0.07178911 -0.07802711
0002c0 3c 6c 27 3d cb 96 81 bd 37 72 02 bc be 8f 8a 3c
       0.040874705 -0.063275896 -0.007961801 0.016914245
0002d0 cf ec 95 bd 1b 50 16 bd b5 72 d6 bb c7 84 4d bc
       -0.07320558 -0.03669749 -0.006544436 -0.012543864
0002e0 e4 03 4e bd 62 f6 d5 bc 07 81 cf bc a5 88 ea bc
       -0.05029668 -0.026118461 -0.02533008 -0.02862961
0002f0 0a 9b 2a bd 3d 81 ff 3c 54 6e a5 3d 49 1f 66 3c
       -0.041651763 0.031189555 0.08077684 0.014045545
000300 5e 63 47 bc 6b 7b d5 3c 7c f7 5a 3d f5 2f 5f bd
       -0.012169687 0.026059827 0.053458676 -0.054489095
000310 93 1f c7 3b 89 74 75 bd 70 f5 03 bc ec ae 8e 3b
       0.006076762 -0.05992559 -0.008054122 0.0043543484
000320 a5 ad 39 3d b4 90 17 bd 11 78 59 3d 9a 5f 03 bd
       0.045331616 -0.037003234 0.05309302 -0.032073595
000330 4c f7 48 3d c3 dd f8 bc 14 72 57 3d 46 11 a2 bd
       0.049063966 -0.030379182 0.052599028 -0.07913451
000340 cd b0 1a bd 08 4d 2a bd 2f 64 b2 bc 7a 1a 45 bd
       -0.037766267 -0.04157737 -0.021776287 -0.048120953
000350 e5 9e 6f bd 2e 3d 2e 3b 9e ba 3a bc 83 19 1f bd
       -0.058501143 0.002658676 -0.011397032 -0.03884269
000360 ab 47 ba 3c bb a7 8c 3c fd 18 1a bd f5 2d 00 bd
       0.022739252 0.017169824 -0.037621487 -0.031293828
000370 0b 83 54 3d 1b 7c f4 b8 fd 63 21 bd 19 1c 21 3d
       0.051882785 -0.00011657943 -0.039401997 0.039333437
000380 69 e0 91 3c f1 20 7f 3d 66 7d 42 3d 5d a7 1b 3d
       0.017807202 0.062287275 0.04748287 0.038001407
000390 e5 10 72 3d c1 17 27 3d 0b bc 91 bc d5 61 0e 3d
       0.059098143 0.040794138 -0.017789861 0.03476127
0003a0 7b 9f 7a 3c 7f 4c 89 3d d2 4e 9b bd f0 4e 94 bd
       0.015296812 0.067040436 -0.07583393 -0.07241619
0003b0 2a f6 79 bd f9 f5 8b bd 0a 07 8c bd d5 e3 21 3d
       -0.061025776 -0.06834025 -0.0683728 0.03952392
0003c0 ae 23 66 bd 3c 55 8e bc bc 0c 59 bd 78 51 1a 3d
       -0.05618637 -0.017374627 -0.05299066 0.03767535
0003d0 36 c5 aa bd d4 81 cf 3c 48 87 06 3d 00 76 c3 3c
       -0.08338396 0.025330462 0.032843858 0.023859978
0003e0 c5 39 54 3d 78 db a1 3d f5 01 63 bd ee 93 91 bd
       0.051812906 0.079031885 -0.05542179 -0.071082935
0003f0 ae 72 41 3d ff 52 59 bc ba f1 85 3d 88 fe 8e 3d
       0.047228508 -0.013264417 0.06540246 0.06982142

conv2.bias f4 [32]
000000 cd c8 ec bc a9 c9 3b ba 12 ac 82 bb 99 d4 f8 bb
       -0.028904343 -0.00071635336 -0.0039877975 -0.007593703
000010 10 d5 73 3c e3 66 5f 3c 92 f8 1a bc 1c 6e 13 b8
       0.014882341 0.01363537 -0.009458678 -3.515008e-05
000020 23 4d c0 3b 67 e9 07 bb 63 88 f8 bb dd ec 1f 3b
       0.0058685704 -0.0020738484 -0.007584618 0.0024402656
000030 3c 9e 76 b8 a8 7a e2 3c b7 cd 25 3d 45 14 01 bd
       -5.8798338e-05 0.027646378 0.040479388 -0.03151347
000040 05 48 16 bd 30 43 5c b9 00 7e 23 3a c4 22 b6 ba
       -0.036689777 -0.00021005864 0.0006236732 -0.0013895859
000050 ca e4 ec bc 68 5d 9d bc 6f bd 52 b8 3a 6d b4 3c
       -0.028917689 -0.019209579 -5.0244325e-05 0.02202474
000060 37 16 88 3c 3a 62 da bc ba e9 0c 3b 97 0d 41 3b
       0.016612155 -0.026658166 0.0021501617 0.0029457563
000070 c8 c0 78 bb 09 f3 ea 3c 42 d6 a6 3c f3 39 dd bc
       -0.0037956703 0.028680341 0.020365838 -0.027005171

bn2.weight f4 [32]
000000 8f 2e 7e 3f c2 92 7e 3f 39 e6 7e 3f 5e 24 7d 3f
       0.9928979 0.99442685 0.9957004 0.98883617
000010 a4 f2 7d 3f c2 31 7f 3f 1a 2b 80 3f d4 57 80 3f
       0.99198365 0.996853 1.0013154 1.0026803
000020 d4 61 7d 3f 4b 54 7e 3f a9 f4 7f 3f 72 e0 7b 3f
       0.989774 0.9934737 0.99982697 0.9838935
000030 40 81 7c 3f 40 72 80 3f 3e 41 80 3f 74 b1 7f 3f
       0.9863472 1.0034866 1.001991 0.99880147
000040 a6 d7 7c 3f 50 45 7f 3f 81 57 7c 3f 77 7e 7e 3f
       0.98766553 0.9971514 0.9857102 0.9941172
000050 4f 7f 7c 3f eb 1e 7f 3f 93 b1 7a 3f 35 2b 7b 3f
       0.9863176 0.9965655 0.97927207 0.98112804
000060 06 2b 7e 3f c8 cd 7c 3f f0 9f 7f 3f b8 8d 7d 3f
       0.992844 0.987515 0.9985342 0.9904437
000070 fc b1 7c 3f 88 e1 7e 3f e6 d8 7b 3f b1 2c 80 3f
       0.9870908 0.99562883 0.98377836 1.0013639

bn2.bias f4 [32]
000000 2d 87 42 bb 75 b5 1a 3a ef ba 23 bb ad a7 cd bb
       -0.0029682622 0.0005901673 -0.0024983247 -0.006276092
000010 d8 5b d4 ba 75 17 56 bc 4f c4 7c bb 5a cb 08 3a
       -0.0016201688 -0.013067116 -0.0038569157 0.000521829
000020 ac e3 2f 3a aa e5 4a 3a be f0 e8 3b 56 27 c6 bb
       0.0006709646 0.0007739911 0.007108777 -0.0060471697
000030 63 f3 dc bb 50 8c 30 bc 37 d0 f5 3a 7f 61 a1 3b
       -0.006742881 -0.010775641 0.001875407 0.0049249525
000040 d2 fd d7 ba 62 f3 70 bb 69 c4 cc 38 ff ec 2c bb
       -0.0016478843 -0.0036766161 9.764062e-05 -0.0026386378
000050 fa f4 d9 bb 6e 9b 99 bb 6b 7c 10 bc 83 bc d0 ba
       -0.006651518 -0.004687718 -0.008818726 -0.0015925321
000060 72 8d e8 39 8c 3a ac bb 30 59 c9 3b 1a 2b c0 bb
       0.00044355873 -0.005256003 0.006144665 -0.005864513
000070 2b bb a8 3b fa 7d 98 3b 72 fe c6 bb 5a 4e 6d bb
       0.0051492653 0.0046536895 -0.0060728127 -0.0036210031

bn2.running_mean f4 [32]
000000 38 ce 35 3f 38 ea 56 3d 14 19 bc bd 50 df 8b 3e
       0.7101779 0.052469462 -0.09184471 0.2731881
000010 e1 84 36 bd ec ca da 3e ac 25 03 bf c3 41 d7 3d
       -0.044560317 0.42732942 -0.5122936 0.1051059
000020 9b 9d 20 bf 1b 4d df 3e 73 f3 f1 3c 78 96 4e be
       -0.62740487 0.43613514 0.029535031 -0.20174587
000030 9a e5 71 bd 6f f9 82 3e a7 a0 82 3c ce 9f 7a be
       -0.059056856 0.25580928 0.015945746 -0.24475023
000040 3f 87 11 bf 34 13 c4 3e 0f 83 af bd 80 07 9a bd
       -0.56846994 0.382959 -0.08569919 -0.07520962
000050 ae 21 c5 3e ad f6 99 be 55 20 de 3d 15 76 12 3f
       0.38502258 -0.3007101 0.108460106 0.5721143
000060 a2 43 bb be 01 be 84 bd 75 5d c4 be 9e 7c 90 3e
       -0.36575037 -0.06481553 -0.38352552 0.28220075
000070 2c b0 06 bf 03 3b 22 3e d9 56 8d 3e c7 68 a9 3e
       -0.52612567 0.15842824 0.27605322 0.3308775

bn2.running_var f4 [32]
000000 ac 5d be 3e 3e 38 06 3f 5a 59 0c 3d ae d3 57 3e
       0.3718084 0.5242957 0.0342649 0.21076843
000010 01 61 f3 3c 9a ca ee 3d 8c 4e 7f 3d 68 1c ca 3d
       0.029709341 0.11659737 0.062330768 0.09868699
000020 4b 0a 00 3e b5 bf d0 3d 26 d7 c5 3e 52 e4 ad 3d
       0.12503926 0.10192815 0.38640708 0.08490814
000030 de 21 ad 3e 3d 6d b8 3d 46 a5 d6 3c 59 b0 b8 3d
       0.338149 0.090052105 0.026201855 0.09018011
000040 9d fb df 3e 67 05 80 3d f8 f9 89 3e 37 5c a3 3d
       0.43746653 0.062510304 0.26948524 0.07976573
000050 6a 9c 86 3d 69 25 69 3d 2b 87 5c 3d 33 74 c3 3d
       0.06572802 0.056920443 0.053839844 0.095436476
000060 76 0b 7a 3e 7b 79 17 3d 1e 98 16 3e db b1 c9 3d
       0.24418435 0.036981087 0.14706466 0.09848376
000070 01 19 11 3e 45 75 19 3e e5 92 ec 3d 7f 62 87 3d
       0.14169694 0.14986141 0.115514554 0.066105835

conv3.weight f4 [64, 32, 3, 3]
000000 8c 4a 4d 3d 94 ad 55 3d 4c 57 88 bc 94 5d e2 3c
       0.05011992 0.05216749 -0.016643189 0.027632512
000010 3b ea 87 3c cf 32 16 3d 1f 7f 27 bd 6e df 3e 3d
       0.016591182 0.03666955 -0.040892716 0.046599798
000020 02 ca 1e bd 18 b8 20 3d d3 97 06 3d 4e 07 25 bd
       -0.03876687 0.039238065 0.032859635 -0.04029017
000030 51 cb 38 bd fb 03 61 bd 62 97 24 3d cb fe 5d 3c
       -0.045115773 -0.054935437 0.040183432 0.013549517
000040 56 3b 48 3d 6a a6 75 bc fd 30 37 bd c4 1c 62 bd
       0.048884712 -0.0149932895 -0.044724453 -0.055203214
000050 8e 65 6f bd bb 36 f8 3c 61 3b 07 bb 2a f8 89 3a
       -0.05844646 0.030299535 -0.0020634758 0.0010526229
000060 f7 ea 19 bd 2c 9d 43 3d 44 18 2d bd e6 32 57 3c
       -0.037577596 0.047757313 -0.04225947 0.013134694
000070 57 4e 52 3d d4 ce c9 3c 97 16 a3 3c 5d c3 d3 3c
       0.051344242 0.024634756 0.019908233 0.025849992
000080 3a 2f 12 3d 17 88 a1 3c b1 c5 03 bd 06 ab 7b ba
       0.03568957 0.019718213 -0.032170955 -0.00096003746
000090 bb d4 13 3d 22 64 fe 3b 26 39 7c 3c f0 13 b4 3c
       0.036091547 0.0077634016 0.015394485 0.021982163
0000a0 72 84 59 bd bf 67 60 bd d7 a6 28 bd 98 df 40 bd
       -0.053104825 -0.05478644 -0.041174736 -0.047088236
0000b0 00 9c eb bb ec 6f b3 3b cf b2 4d 3d 77 5f a8 3c
       -0.0071902275 0.0054759886 0.050219353 0.020553334
0000c0 8c da dc bc 1f 0d 33 3d 35 68 43 bc 9b 5e 3c 3c
       -0.02695968 0.043713685 -0.0119267 0.011497165
0000d0 45 48 9c bc 83 ce 90 3c 55 32 5c 3d b7 49 57 bd
       -0.01907743 0.017676597 0.053758938 -0.052560534
0000e0 5e 85 e7 3b d6 fe 98 3c af 51 96 3c b6 7f 0f bd
       0.007065459 0.018676203 0.018349497 -0.035033904
0000f0 40 da 41 bd 06 53 7d 3c bb ad a9 bc 34 0c 50 3c
       -0.04732728 0.015461689 -0.020712724 0.012698222
000100 fb 3f 4c bc 87 54 94 3c 8a d4 1f 3d 3c 18 5d 3c
       -0.012466426 0.018106712 0.039021052 0.013494547
000110 ca 03 28 bd b5 b6 0b 3d 54 34 73 bd ec df bc 3c
       -0.04101924 0.03410979 -0.059376076 0.023055993
000120 f0 db fc bc d8 5a 55 3d 34 f7 2c bd 22 a1 58 bc
       -0.030866593 0.05208859 -0.04222794 -0.013222011
000130 9c 7f 54 bd d9 1a 0b bb cc d2 2d bc f3 a5 6a bc
       -0.05187951 -0.002122572 -0.01060934 -0.014321792
000140 5e de 69 bc 13 38 a6 3b 82 a7 70 bd d5 5b b5 3c
       -0.014274208 0.0050726025 -0.058753498 0.022138515
000150 a5 43 1b bc 10 43 14 bd db 70 36 bd a4 01 94 bc
       -0.009476577 -0.03619677 -0.04454122 -0.018067189
000160 61 f4 50 bd 47 5a 56 3d d1 d6 17 bd 3b 8e 5e bd
       -0.051014308 0.05233219 -0.0370701 -0.05433486
000170 27 42 c3 bc dd 25 3a 3d da 96 51 bd 7a 15 dc 3c
       -0.023835255 0.045446265 -0.051169254 0.02686571
000180 15 b4 c4 3c b8 9d 0d 3d 26 4a 5f 3d bc 2c 50 3d
       0.024011651 0.03457424 0.054514073 0.050823912
000190 6e cc e3 3b ef d5 0d 3d e0 18 60 ba cb 6f 03 3d
       0.00695186 0.03462785 -0.00085486285 0.032089036
0001a0 37 31 0f 3d 41 b5 d5 3b 05 dd 1c bd 1d 97 44 b9
       0.034959044 0.0065218513 -0.03829672 -0.0001874831
0001b0 21 c6 ab 3b f7 56 41 b9 ac c9 3a 3d 04 d2 51 bc
       0.0052421247 -0.00018438311 0.045602486 -0.012806419
0001c0 ad a6 5c 3d 12 73 05 3d 57 f0 8d bc 4c 59 f9 bc
       0.053869892 0.032580443 -0.017326517 -0.030438088
0001d0 43 09 35 bd 12 5e 00 3d 37 21 07 3d 0c ec 34 3d
       -0.044198286 0.031339712 0.03299066 0.044170424
0001e0 b6 4c a2 bb 49 19 0a 3d 47 98 bf bc 73 3f f1 bc
       -0.0049529923 0.03371552 -0.023388041 -0.0294492
0001f0 24 65 ce 3c 6e 20 31 3d 63 10 7b 3c bd fa 13 bd
       0.025194712 0.043243818 0.015323731 -0.036127795
000200 20 6a 20 bc 4c 59 15 3c 85 19 e3 3b 99 2b 5a 3d
       -0.009790927 0.009115528 0.0069305324 0.053264234
000210 61 c4 d0 3b 30 0e 49 bd 64 f7 63 3d b3 3f 2e bd
       0.0063710664 -0.049085796 0.055655852 -0.042541217
000220 a1 1d 84 bb 09 e0 e1 3c d3 91 d0 3c f5 1d d1 bc
       -0.0040318524 0.027572649 0.02546016 -0.02552698
000230 5e 44 9d bc 25 aa 78 bd 28 ca 01 bd 3a 2c 4b bd
       -0.01919764 -0.060709137 -0.03168693 -0.049602725
000240 c3 2d 5a bd 48 c9 40 3d 40 4a 09 bc a1 10 60 3d
       -0.053266298 0.047066957 -0.008379519 0.05470336
000250 12 da 08 3d 5f 91 0e 3d 62 23 71 bc 6b 97 e1 3b
       0.033411093 0.034806605 -0.014717909 0.0068845055
000260 62 ec 0c 3d 50 a3 3c bd c4 7e 14 bd a0 4e 1a 3c
       0.03440512 -0.046054184 -0.036253706 0.00941816
000270 71 57 1b bd 42 e3 b8 bc fe e1 1f 3d c5 33 cd 3c
       -0.037925187 -0.022569302 0.039033882 0.0250491
000280 6a f8 16 bd 04 04 d1 3c a6 cf b3 3c a2 fd b5 bc
       -0.036858 0.02551461 0.0219496 -0.022215668
000290 eb 02 07 bd 6e b7 58 3d 35 65 0a bd 35 aa 80 3d
       -0.032961767 0.052909307 -0.033787925 0.062824644
0002a0 8f d3 8a bb 64 82 81 bc 2a 45 76 3d 0c 11 6a 3d
       -0.0042366455 -0.015809245 0.060124554 0.057145163
0002b0 7b a9 03 bd 97 cf 24 3d 47 83 9a 3a 55 20 14 bd
       -0.03214405 0.040237036 0.0011788391 -0.036163647
0002c0 fc f8 5e 3d 66 f0 08 3c 70 da 18 3d fa 62 70 3c
       0.05443667 0.008358097 0.037317693 0.014672035
0002d0 d9 9e 37 bd 66 81 da 3b 1d 64 ae bc 26 c4 13 bb
       -0.044829223 0.0066682575 -0.021287972 -0.0022547334
0002e0 49 6b 6e bd 82 bf 4f bd b4 f3 3a 3d 3c a9 60 3c
       -0.058207784 -0.050719745 0.04564257 0.013712224
0002f0 11 81 70 bb 6c 51 73 3c 99 9f a4 bc aa e7 ec bc
       -0.0036698023 0.014850955 -0.020095633 -0.02891906
000300 4a d5 44 3d ce b5 2b 3d ba d6 13 3d ea 11 f2 3c
       0.04805497 0.04192143 0.03609345 0.029549558
000310 ec bc dd bc 08 83 c0 bc 94 cb 55 3d 79 1d 1e bd
       -0.027067624 -0.02349998 0.0521961 -0.038602326
000320 f6 4d 01 3d f4 2e 92 3b 0c a6 ef bc dc b5 fc 3c
       0.03156849 0.0044611637 -0.029253982 0.030848436
000330 63 78 5a bb 41 ba 20 3d 17 f6 65 bd 52 6a 64 bd
       -0.0033335916 0.039240126 -0.056142893 -0.055765457
000340 d0 d8 4d 3d dd 5c bd bb d6 90 ff 3b f4 b8 55 3c
       0.050255597 -0.0057788924 0.007799248 0.013044585
000350 c0 ce a7 bb ca a2 0a bd 12 5f 46 3d 88 46 41 3d
       -0.005121082 -0.033846654 0.04843051 0.047186404
000360 7d 8b 58 3d 4e ef 9e 3c cf 4b 69 bd 1f 86 2b 3d
       0.0528674 0.019401219 -0.056957062 0.041875955
000370 82 a3 18 bd 5a c9 8d 3c 8d b9 05 3c 6e 99 2d 3d
       -0.03726531 0.017307926 0.008161915 0.04238265
000380 c0 4f 0a bd 56 51 9e 3c e0 6d 68 3d 9b db 1c 3d
       -0.03376746 0.019325893 0.05674541 0.03829537
000390 1b fe 10 3d fe 47 bf bc 6d a0 68 bd c2 ad f8 bb
       0.035398584 -0.023349758 -0.05679362 -0.007589073
0003a0 9e 15 5e 3d 67 2d 6a 3d ea c7 3c 3d 2d c8 18 bd
       0.054219835 0.057172205 0.04608909 -0.037300278
0003b0 e4 e4 6b bd 30 2b 0b bc ab c4 9f bb 0d 8b 42 3d
       -0.057591334 -0.008494183 -0.0048757396 0.04749589
0003c0 f4 62 5c bd e1 97 ba 3c 3e 6f ae bc 66 07 6c 3c
       -0.053805307 0.0227775 -0.021293279 0.014406061
0003d0 e1 0f a6 bc 11 e6 2f 3d 8a ba 95 bb 1b 8e 43 3c
       -0.020271244 0.042944018 -0.0045693563 0.011935736
0003e0 6e 72 00 3c 57 9a 88 3c 0a a0 06 bd 24 87 a7 bc
       0.007839782 0.016675157 -0.03286747 -0.020450182
0003f0 5c 50 27 bd c8 83 59 3c cf 75 03 3d f8 b8 2d bd
       -0.04084812 0.013276048 0.032094773 -0.042412728

conv3.bias f4 [64]
000000 fa d4 ff 3a 2d fd be ba 79 b2 66 ba 41 a9 2a 3c
       0.0019518428 -0.0014571302 -0.0008800398 0.01041633
000010 37 8f 0d bc 6a 1f 51 3c 8a be 0f 3c be 15 83 3c
       -0.008640102 0.012763837 0.008773455 0.016001578
000020 2e 85 82 ba e3 78 9f ba ab bb 1e bc a4 0c 2c ba
       -0.0009957904 -0.0012166764 -0.009688298 -0.0006563163
000030 a4 86 14 bc b7 27 72 3b dd 0c 04 ba 5b 6a 42 39
       -0.009065304 0.0036949941 -0.0005037317 0.00018540902
000040 35 f2 bd bb da db 82 3a be ce b9 3a 08 94 50 3c
       -0.0057966956 0.0009983734 0.0014175994 0.012730606
000050 ee 9a 56 3a 6b 8a 58 3c eb 4e ab ba b7 70 83 3a
       0.00081865385 0.013216595 -0.0013069784 0.0010028098
000060 30 24 37 bb a1 9e 9b 3b 3a 22 bb ba 61 2b 0a bc
       -0.0027945153 0.0047491346 -0.0014277168 -0.008433194
000070 18 87 93 39 45 fa 8d 3c 19 78 2d bb c0 c0 76 3b
       0.00028138678 0.017331252 -0.002646929 0.003765151
000080 84 11 b0 3a 4e 5b 90 bc cc 13 bb ba 49 b1 63 3a
       0.0013432954 -0.017621662 -0.0014272868 0.00086857803
000090 b1 a5 5a 3a da 8a c0 3b 51 2d 85 bc 34 0f 38 ba
       0.000834073 0.0058759274 -0.01625696 -0.00070213084
0000a0 c8 5f ff 39 02 c9 ab 3b 7b 88 11 bc 49 90 37 3c
       0.00048708753 0.005242468 -0.008882637 0.011203834
0000b0 d7 80 8a b9 16 c8 e6 3b e6 9a 71 bb c5 d8 5c 3c
       -0.00026417404 0.007042895 -0.0036866008 0.013479416
0000c0 74 9c 67 bb f0 46 9f b9 05 87 a3 b9 b1 7f bd 3a
       -0.0035341056 -0.00030379696 -0.0003119038 0.0014457611
0000d0 69 3c 81 3c 87 bc 8f ba ea 70 92 3a 65 c6 b7 ba
       0.015775876 -0.001096622 0.0011172567 -0.0014020918
0000e0 09 2f cd bb 5e a0 df 39 6f f7 b3 ba 74 11 89 3b
       -0.0062617105 0.00042653357 -0.0013730357 0.004182989
0000f0 ff d8 83 39 97 ec 11 bc 61 0d 6a bc 52 71 01 bb
       0.00025147942 -0.008906505 -0.014285416 -0.0019751382

bn3.weight f4 [64]
000000 8c 3f 7d 3f f6 07 7e 3f e4 56 7d 3f 50 57 7d 3f
       0.9892509 0.992309 0.9896071 0.98961353
000010 6b 71 7e 3f fe 8a 7e 3f 1b 92 7d 3f 12 17 7c 3f
       0.9939181 0.99430835 0.99051064 0.984727
000020 32 a6 7d 3f 1a b5 7e 3f a2 9f 7d 3f 2e cf 7e 3f
       0.9908172 0.9949509 0.99071705 0.9953488
000030 70 84 7d 3f 80 2f 7b 3f 66 a1 7d 3f f0 d0 7b 3f
       0.9903021 0.98119354 0.990744 0.9836569
000040 4a ce 7c 3f 85 39 7d 3f 0d 1f 7c 3f 25 ff 7b 3f
       0.9875227 0.9891589 0.9848488 0.98436195
000050 da 96 7b 3f 73 af 7c 3f 39 09 7f 3f 89 88 7c 3f
       0.98277056 0.98705214 0.9962345 0.98645836
000060 06 1d 7f 3f 20 c2 7a 3f b5 01 7e 3f f9 03 7f 3f
       0.9965366 0.9795246 0.99221355 0.99615437
000070 5a 6f 7d 3f b4 43 7d 3f ea 07 79 3f 48 46 7f 3f
       0.98998034 0.9893143 0.972777 0.99716616
000080 84 67 7d 3f 5d 33 7d 3f a2 64 7c 3f d2 9d 7b 3f
       0.9898608 0.989065 0.98591053 0.9828769
000090 b5 bd 7c 3f a4 b3 7f 3f 40 b1 7d 3f 6a 05 7e 3f
       0.9872697 0.99883485 0.9909859 0.9922701
0000a0 74 1e 7c 3f 55 bb 7c 3f 1b 85 7d 3f ae b7 7d 3f
       0.9848397 0.98723346 0.9903123 0.991084
0000b0 7b 65 7c 3f 21 86 7e 3f 84 83 7d 3f c1 87 7b 3f
       0.98592347 0.99423414 0.990288 0.9825402
0000c0 36 46 7d 3f 0c 3f 7e 3f 75 96 7b 3f 48 e7 7d 3f
       0.9893526 0.9931495 0.98276454 0.9918103
0000d0 26 f3 7c 3f 18 a1 7d 3f 71 44 7d 3f 8e e8 7c 3f
       0.98808515 0.99073935 0.9893256 0.9879235
0000e0 ed 9b 7c 3f 32 94 7b 3f f9 fd 7b 3f c0 9c 7d 3f
       0.98675424 0.98273003 0.98434407 0.99067307
0000f0 b9 b8 7a 3f 1c d6 7e 3f 60 6b 7c 3f 52 81 7c 3f
       0.97938114 0.99545455 0.9860134 0.9863483

bn3.bias f4 [64]
000000 91 36 d5 ba 1f 9c f0 bb 17 53 1e bb bd 4d a1 bb
       -0.0016266872 -0.00734283 -0.0024158412 -0.004922597
000010 18 fe 81 bb 3a b2 ad ba d7 63 35 bb 36 40 ff 3b
       -0.003967058 -0.0013251968 -0.0027677917 0.007789637
000020 79 83 fa bb 73 68 2d bb ee 57 10 3b 50 ee a0 bb
       -0.0076450673 -0.0026459962 0.0022025066 -0.0049112216
000030 da 35 6e 3b ea 66 4e 3b 75 3b 68 3b ac 85 94 bb
       0.0036348016 0.0031494447 0.003543583 -0.0045325365
000040 cc 97 87 bb 17 a5 47 bb a1 83 b5 ba 1a cd 91 bb
       -0.0041379686 -0.0030463391 -0.0013848433 -0.004449499
000050 8d 31 f7 ba e8 17 58 bb 53 e7 e1 3b a4 8b 14 b9
       -0.0018859372 -0.0032973234 0.006894031 -0.000141664
000060 61 fa fc bb b0 7e fe bb c7 81 15 3c 51 b1 f3 ba
       -0.007720277 -0.007766567 0.00912518 -0.0018592273
000070 28 1f cf ba e5 30 05 bc 9a f7 b1 bb 79 d9 9e 3a
       -0.0015802132 -0.008129333 -0.0054311277 0.0012119255
000080 b6 4d 04 bc 9e b8 23 bc 70 f1 a1 bb 6c f3 cd bb
       -0.008075168 -0.009992747 -0.0049421117 -0.0062851217
000090 d0 bf 40 3a fb bd ec 3b 1e 99 d5 3b 11 d1 82 bb
       0.0007352801 0.007224796 0.006518497 -0.003992208
0000a0 55 1e b9 bb 48 9b ba bb cc 33 71 bb df c8 4b 3b
       -0.005649368 -0.0056947805 -0.0036804555 0.003109507
0000b0 fc d2 a4 3a 08 77 86 3a e5 99 20 ba dd 77 5b 3b
       0.0012575085 0.0010258863 -0.00061264477 0.0033488192
0000c0 3c d7 18 3b 96 1b f0 bb 92 1f a3 bb 2d 82 20 3b
       0.002332165 -0.0073275073 -0.0049781287 0.0024491653
0000d0 38 65 85 bb b5 66 88 3b 52 3c 65 ba 5d 26 04 bb
       -0.004070904 0.0041626343 -0.0008744645 -0.0020164468
0000e0 f4 75 05 ba 34 35 44 39 b4 90 14 bb 52 6f ad 3b
       -0.0005091124 0.00018711836 -0.0022669258 0.0052928114
0000f0 33 9c 19 3a 65 44 8f bb 9c a1 da bb 59 a0 9c ba
       0.00058597623 -0.004372167 -0.0066720974 -0.0011949643

bn3.running_mean f4 [64]
000000 25 a5 04 3e a4 25 e3 3e 6c 3f ac 3e ca 8b 2c bf
       0.12953623 0.44364655 0.33642137 -0.674008
000010 9a a4 59 be b4 ef b5 3e 6c af 0f 3d 8f f2 43 be
       -0.21254197 0.3553444 0.035079405 -0.19135498
000020 4e 81 15 3f aa 8b 98 be 1a 65 1a be ca 64 17 3f
       0.5840043 -0.29794055 -0.1507763 0.59138167
000030 65 44 d6 be bf 40 32 be 99 45 cb 3d 78 e7 6c bd
       -0.41849056 -0.17407511 0.09925384 -0.057837933
000040 ca 33 87 3d 75 54 1a 3f 34 d7 23 be 6f 8c a6 3d
       0.06601675 0.6028512 -0.16000062 0.08132254
000050 8a 85 c1 be 9a 65 c3 be 2f 4a 0d 3e 00 16 c2 be
       -0.37797195 -0.38163453 0.1379783 -0.3790741
000060 67 16 88 3d 66 8b 6c 3e ef a3 67 be 03 54 28 bd
       0.06644898 0.23100051 -0.2262113 -0.041095745
000070 61 5b 73 3c 27 01 e3 3c 5d aa a6 3d b2 e0 68 be
       0.014853329 0.02771051 0.08137963 -0.22741964
000080 5e 8c 45 be 35 08 89 be 4a c1 2a be 07 bf f5 3d
       -0.19291827 -0.26764074 -0.16675296 0.11999326
000090 a2 5b 46 bd 63 67 00 3e 3a b0 38 bd 61 26 03 3e
       -0.04842723 0.12539439 -0.045089938 0.12807609
0000a0 c6 5f 8e bd 9c e6 42 3e b5 c7 3c 3d 9c 49 49 be
       -0.06951861 0.19033283 0.046088893 -0.19656986
0000b0 38 8f 06 3f 1a 79 e7 be a1 43 a7 3e d6 5a c9 3e
       0.52562284 -0.4520958 0.32668784 0.39327115
0000c0 ee 25 42 3e 39 86 6f 3e 76 35 b2 be 3f 96 c3 be
       0.18959782 0.23391046 -0.34806412 -0.38200566
0000d0 6e 8d ad be 52 a3 9f bd df 4f 21 be 38 95 53 be
       -0.33896965 -0.07794823 -0.15753125 -0.20662391
0000e0 e7 cd 8b be 3c ea 29 3e d6 5f 84 3d 72 e4 08 bf
       -0.2730553 0.1659326 0.06463592 -0.5347358
0000f0 8a 30 aa be fc e8 27 bc f2 05 89 3d 75 97 67 be
       -0.33240157 -0.010248419 0.06690587 -0.2261637

bn3.running_var f4 [64]
000000 f6 3c c7 3d 0a 4f 43 3e 97 3a 15 3f cd 78 08 3e
       0.09728424 0.1907312 0.58292526 0.13327332
000010 65 8c b5 3d 07 ce e2 3d 54 9b 5d 3e bf 45 b3 3d
       0.08864669 0.11074453 0.21641284 0.087535374
000020 46 c9 18 3e 48 c3 0f 3e 77 49 17 3e bc 6a bb 3e
       0.1492053 0.14039338 0.14774118 0.3660487
000030 48 d7 39 3e 1f 89 4b 3e 3e b0 de 3d 75 b6 f3 3d
       0.1814853 0.19876526 0.10873459 0.11900035
000040 91 9e 6e 3e 21 17 95 3e 17 dd 98 3e ef 3f b1 3d
       0.23302676 0.29119208 0.29856178 0.086547725
000050 31 de 19 3e 2b 4b f4 3d 7e 4a 8f 3d 2f 32 40 3e
       0.15026166 0.119284 0.0699663 0.18769144
000060 cb 2c 1d 3e 5a 44 49 3d 55 d2 74 3e 66 d1 33 3e
       0.15349118 0.04913745 0.2390836 0.17560348
000070 e0 5a 36 3e ef 78 1f 3e 5b 12 c5 3e ec 64 89 3d
       0.17808104 0.15573476 0.38490567 0.067087024
000080 99 05 8a 3d 42 31 07 3e ca 7c e2 3d dd 4b 41 3e
       0.06739349 0.13202384 0.11058958 0.18876596
000090 d5 6f 8f 3e 16 9e 62 3d df f5 fd 3d 99 02 bd 3d
       0.2801501 0.055326544 0.12400412 0.09229011
0000a0 1e b1 99 3e 20 4d 0c 3f f4 bf 79 3d b8 cb 8b 3d
       0.30017942 0.54805183 0.060974076 0.06825966
0000b0 83 07 4d 3e 76 c1 8b 3d 35 0c a2 3d 4c 9e 51 3e
       0.20022397 0.06824009 0.079124846 0.20470542
0000c0 60 17 eb 3d 05 da 20 3e 69 0a 16 3f 1b 59 a2 3d
       0.11479068 0.15708168 0.58609635 0.07927152
0000d0 04 d4 68 3e e6 68 ea 3d 7f ca 34 3e fb 0f ad 3e
       0.22737128 0.11445789 0.17655371 0.33801255
0000e0 e2 43 b9 3e 3c 07 3e 3e f1 93 34 3e ff ed 76 3e
       0.36184603 0.18557447 0.1763456 0.24114226
0000f0 d3 9a 14 3e a0 b9 e6 3d 66 96 e6 3d 9c 4a 42 3e
       0.14512186 0.11265874 0.11259155 0.18973774

conv4.weight f4 [32, 64, 3, 3]
000000 0e 75 1d bd 61 7f 31 bd ab 1c 54 3c e6 ac e6 3c
       -0.03844171 -0.04333437 0.012946288 0.028158616
000010 3d a7 c3 bb 7a 74 0b bd 49 7e 10 3c 19 1c 2b bd
       -0.005970864 -0.034046628 0.008819171 -0.041774843
000020 16 e1 5c 3c fd 02 08 bd ac a1 9c bc a4 3c 5e bc
       0.013481399 -0.033205975 -0.01912006 -0.013564263
000030 ab a3 c7 3c 10 41 da 3c 12 eb 5a bc 55 fd 03 3d
       0.024370035 0.026642352 -0.013361709 0.032224018
000040 86 65 fd 3a ab ac d0 bc ef fc 01 3d 88 06 d9 3c
       0.0019332625 -0.02547296 0.031735357 0.026492372
000050 ab 8e d0 bc 1c d7 68 bc 3c 53 2f bd c2 a9 3c 3b
       -0.025458654 -0.014211442 -0.042803988 0.0028787707
000060 2c 68 11 b9 1b 59 77 3c c0 f3 c1 3c c7 02 ba 3c
       -0.00013867085 0.015096928 0.0236758 0.022706402
000070 a0 0b b8 3b 51 c4 fe bc a6 a2 9d bc 6f a4 81 bc
       0.00561662 -0.03109947 -0.019242596 -0.015825478
000080 50 a7 1b 3c ea 61 a1 bc 09 fe 0a bd 50 96 0a bd
       0.00950034 -0.01970001 -0.033933673 -0.033834755
000090 eb 54 eb 3c eb f5 0a 3d 2b 5f 09 3d d0 b8 cc bb
       0.028727015 0.033925932 0.033538025 -0.0062476173
0000a0 09 72 53 3c 66 89 a0 bc 7a dd 6e bc e6 01 d1 bc
       0.012905606 -0.019596767 -0.014579171 -0.0255136
0000b0 c4 50 fc bc b1 ee de 3c f2 2e c8 3b 33 d6 0a 3d
       -0.03080023 0.027213426 0.006109112 0.033895683
0000c0 95 3f 8c bc b5 3a c4 b8 68 5a 66 bc 78 27 a4 bc
       -0.017120162 -9.356943e-05 -0.0140596405 -0.020038351
0000d0 ea d8 e6 bc 84 37 90 bb d5 47 4b bc 8c 0e 8b bc
       -0.028179605 -0.004401149 -0.012407263 -0.01697471
0000e0 15 d6 a0 3c 2a ef 70 bc 28 4a 9f bc cb 16 3b bd
       0.019633332 -0.014705459 -0.01944454 -0.045676034
0000f0 c8 8c 3c bd e5 d0 10 bd a7 ef 42 3c 80 7f d4 bc
       -0.046032697 -0.035355467 0.011897958 -0.025939703
000100 eb 0e b4 bb 04 2b 08 3d 44 e3 e9 bc 8c 9a 5e 3c
       -0.0054949424 0.033244148 -0.028550752 0.0135866515
000110 cf 4a d0 3c 73 9e b7 bb bf 1d b4 bc b0 e2 73 3c
       0.025426297 -0.0056036054 -0.02198684 0.0148855895
000120 b5 61 3b bd f9 df 20 bc 01 5d 2a bd 63 7a b8 3c
       -0.045747478 -0.009819024 -0.0415926 0.022519296
000130 ba 67 db 3c 05 06 14 bd 31 82 e0 3b ad 30 44 3c
       0.02678286 -0.036138553 0.0068514575 0.011974496
000140 c3 72 c8 bc e1 19 06 bd e0 80 b8 3b 89 c6 d1 3b
       -0.024468785 -0.032739524 0.0056305975 0.006401841
000150 b1 ef 96 3c 8a b7 ce bc df d0 17 3d ee 0c 81 3b
       0.01842484 -0.025234003 0.03706443 0.003938309
000160 26 56 2c bd 71 c9 6d bc 94 e0 6d bc 8b 4d 25 3c
       -0.042074345 -0.014513359 -0.014518876 0.0100892885
000170 9b b5 1b 3d fe 57 19 3d 44 be 09 bd 89 06 79 3c
       0.03801499 0.03743743 -0.033628717 0.015199312
000180 92 48 0e bd b6 33 1d 3d e8 fa ef 3c 62 d9 3f bd
       -0.034737177 0.038379394 0.029294446 -0.04683817
000190 fd ef 12 bd ec de be bc 11 35 00 bc 73 36 25 bd
       -0.035873402 -0.023299657 -0.007825152 -0.04033513
0001a0 e2 74 04 3b a4 27 be 3c 95 fa 13 bd 24 69 3a bc
       0.002021127 0.023212261 -0.036127646 -0.011377607
0001b0 79 47 e4 3c d2 16 fd 3c 28 d9 50 3b 83 eb 66 3c
       0.027866112 0.03089467 0.0031867716 0.014094236
0001c0 da 3b 9c 3c 63 9e 24 3d 30 3c b2 bc 21 b7 bb bc
       0.019071508 0.04019011 -0.021757215 -0.022914471
0001d0 11 ed aa bc 11 e6 bd bc da 48 e6 b9 fa 28 b9 bc
       -0.020864995 -0.023180993 -0.00043923297 -0.022602547
0001e0 20 73 c9 bc 65 88 1d 3d f3 53 95 3c 69 d2 b4 bc
       -0.024591029 0.038460154 0.018228507 -0.022072988
0001f0 39 99 94 bc 54 1b 05 bd 52 86 84 bc 37 11 12 3d
       -0.018139469 -0.032496765 -0.01617733 0.03566095
000200 0f 42 be bc ac c9 8d bc d6 4e 9a bc a4 5a d2 bc
       -0.023224859 -0.017308079 -0.01883642 -0.025677986
000210 4d da 31 ba c1 a1 88 bb d4 1b 1d bd bd ea 78 bc
       -0.00067845435 -0.004169673 -0.038356617 -0.015192685
000220 5e 6d 01 bc 91 a3 0b bd 3c 3a 94 bc 86 0c f6 bb
       -0.00789961 -0.034091536 -0.018094175 -0.007508817
000230 14 02 29 bd 88 4f 8c bc 3f 3c c5 bc e9 a5 bd bc
       -0.041261747 -0.017127767 -0.02407658 -0.023150401
000240 27 15 02 bd c2 c7 9e bc 52 ad 16 bd 86 67 88 3c
       -0.031758454 -0.019382361 -0.036786385 0.016650926
000250 27 83 b6 3c f4 83 a9 ba 81 53 23 bd 8d 36 77 bc
       0.022279335 -0.0012933002 -0.039874557 -0.0150886895
000260 75 17 d2 3b 6a 3e 07 bd 3d 5b 3c bc e9 78 ef bb
       0.0064114877 -0.033018507 -0.011496362 -0.007308115
000270 31 31 27 bd ce 79 82 3c 28 25 c5 3c 82 1c 20 bd
       -0.040818397 0.015927222 0.024065569 -0.039089687
000280 1b 28 04 bd bf 55 67 3b 9f c8 8d 3c e8 bb 0a 3d
       -0.03226481 0.0035298911 0.017307578 0.033870608
000290 2b 7a b9 bc 9f e0 9c 3c 09 4b b0 3c a2 f7 21 bd
       -0.022641262 0.019150076 0.021520155 -0.0395428
0002a0 52 84 31 bd 2e b9 d7 bb ec 6b f6 bc 2f 61 d3 bc
       -0.04333908 -0.0065833544 -0.030080758 -0.025803177
0002b0 6c 4c 01 bd 4f a0 35 bd 79 1e f4 ba df 1a 00 bd
       -0.031567022 -0.044342335 -0.0018624804 -0.031275626
0002c0 c8 e6 06 bd 7b aa 95 3a 60 cb 31 bd 13 48 96 bc
       -0.032934934 0.0011418605 -0.043406844 -0.018344915
0002d0 87 53 a4 3a 4a 53 f8 b9 5a c0 0e 3d 79 42 38 3b
       0.00125371 -0.000473643 0.03485141 0.0028115793
0002e0 1e ef f0 bc a1 06 f0 3c e3 be 21 bb 1c cf fd bc
       -0.029410895 0.029300036 -0.0024680428 -0.030982547
0002f0 e9 96 4c bc 2c 14 8e 3b b1 b6 25 bd 6a db 38 bc
       -0.012487152 0.004335901 -0.04045743 -0.011282781
000300 47 be b4 3c 99 fc 85 3c 93 63 a5 bb 32 46 e7 bb
       0.022063388 0.0163558 -0.0050472706 -0.0070579285
000310 1d 54 1d bd 6e ea ec bc bd 0e 61 3c 46 e5 6c ba
       -0.038410295 -0.028920379 0.013736424 -0.000903685
000320 bd c4 d5 3c a3 9b f7 3c 00 75 0c 3d 80 a2 a2 3a
       0.026094789 0.03022558 0.034291267 0.0012408048
000330 e3 19 db 3c 8f 9e 5b 3c 83 b8 17 3d 51 55 97 bc
       0.026745742 0.0134045025 0.0370412 -0.0184733
000340 d9 ec 85 3c 72 13 ff 3c 06 fe 82 bc 3b e3 8a 3b
       0.01634829 0.031137202 -0.015990268 0.0042385138
000350 f2 ed 22 3d 00 65 b0 3c 7c 5b a3 3b 9a 62 0b bd
       0.039777704 0.021532536 0.004985271 -0.03402958
000360 23 33 03 3c 9a 92 d0 3a f3 1c b6 3b 1b ed 2b 3c
       0.008007797 0.0015912831 0.0055576502 0.010493542
000370 8a 9d 6e 3c 45 ca b3 3b 98 04 ec 3c e6 16 0f bd
       0.014563927 0.005486759 0.028810784 -0.034933947
000380 e7 ef 61 3c 8b 47 00 3a 8b a0 70 bb 47 56 f7 bc
       0.013790107 0.0004893473 -0.0036716785 -0.030192507
000390 ec fd 1d bd e8 d6 0c bd 7b 76 81 3c 28 3c 11 3d
       -0.038572237 -0.034384638 0.015803566 0.03545776
0003a0 be 1c 11 bd f2 ad 55 3c aa b5 cf bc 37 34 b9 bc
       -0.0354278 0.01304196 -0.025355179 -0.022607906
0003b0 7b 7b 90 bb ea 28 32 3b 40 83 ce 3c 9a 12 91 bb
       -0.0044092513 0.0027185031 0.02520907 -0.0044272663
0003c0 57 96 d8 bc da dc f7 bc f3 2c 21 bc 4e 13 0e 3d
       -0.026438875 -0.030256677 -0.009837377 0.03468638
0003d0 85 9a 16 bd 16 8d 33 bd 15 eb 1f bd 99 60 99 bc
       -0.036768455 -0.043835722 -0.03904255 -0.01872282
0003e0 cc ad f3 bb c8 71 02 bd b1 7a 3c bd c0 f2 e1 3c
       -0.0074364897 -0.03184679 -0.046015445 0.027581573
0003f0 5f 80 22 3d 0f 53 c9 bc 0b 53 b1 bc a5 5d 4e bb
       0.039673205 -0.024575738 -0.021646043 -0.0031488922

conv4.bias f4 [32]
000000 32 23 9b 3b 5e 29 39 bb 44 2c ac bb 31 e1 88 bb
       0.00473442 -0.0028253417 -0.0052543003 -0.0041772355
000010 5b b7 18 3b 22 4a b3 37 1a aa 7a b9 c0 c2 aa 3b
       0.0023302648 2.1372984e-05 -0.00023905226 0.0052112043
000020 3a c9 9c b8 d9 e5 7f bb 55 cc 65 39 1e 2d 47 ba
       -7.476141e-05 -0.0039046912 0.00021915261 -0.00075979705
000030 b5 f9 00 3a 89 e5 56 3a ca d6 37 3b e0 58 bf 39
       0.0004920022 0.00081976556 0.0028051608 0.00036496576
000040 99 2d 32 3b e7 2f 8f 38 97 0c 80 3a 43 10 60 3a
       0.0027187823 6.827694e-05 0.0009769377 0.0008547345
000050 f2 ce c9 39 a4 a9 8f b8 0a 37 86 3a d9 32 b7 3b
       0.00038491894 -6.8503694e-05 0.0010239792 0.0055907783
000060 26 2e 10 3a d8 d8 28 bb d2 31 ee 37 ad 7e a5 bb
       0.0005500041 -0.0025764015 2.839501e-05 -0.0050505013
000070 fb f0 0d 39 84 89 f5 b7 f0 16 05 39 f0 73 bc ba
       0.0001353658 -2.9270312e-05 0.00012692413 -0.0014377814

bn4.weight f4 [32]
000000 e9 ed 7a 3f 1e 38 7d 3f 3d 74 7c 3f 8e db 7d 3f
       0.9801927 0.98913753 0.98614866 0.9916314
000010 ed b8 7d 3f 04 bc 7c 3f d6 a0 7b 3f 4e 39 7f 3f
       0.991103 0.9872439 0.9829229 0.99696815
000020 87 f2 7d 3f a0 3c 80 3f 45 6c 7e 3f 12 d5 7f 3f
       0.9919819 1.0018501 0.99383956 0.99934494
000030 35 24 7c 3f 21 19 7f 3f 9f ea 7c 3f 87 45 80 3f
       0.9849275 0.9964772 0.98795503 1.0021218
000040 62 38 7c 3f 47 5d 7e 3f 9f 51 7f 3f b2 f7 7c 3f
       0.98523533 0.9936108 0.9973392 0.98815453
000050 16 4c 80 3f 14 a0 7e 3f 12 47 7e 3f 6c 5b 7d 3f
       1.002322 0.9946301 0.99327195 0.98967624
000060 fe 8c 7d 3f e5 55 7f 3f 53 32 7d 3f e7 f8 7c 3f
       0.9904326 0.9974044 0.98904914 0.98817295
000070 fc f5 7d 3f ce 20 80 3f d3 dd 7c 3f fc 9b 7e 3f
       0.9920347 1.0010011 0.98775977 0.99456763

bn4.bias f4 [32]
000000 ea 80 23 bc f7 68 94 3b eb 5f 42 bb d7 5e 71 3a
       -0.009979466 0.0045291143 -0.0029659222 0.00092075526
000010 60 28 cb bb dd 04 3e bb 73 c9 e0 bb d8 b5 c1 3a
       -0.0061998814 -0.0028994598 -0.006859952 0.0014778925
000020 cc 3a 41 bb 28 cf a3 bb 7f 34 87 bb 45 40 98 3b
       -0.0029484509 -0.00499906 -0.004126131 0.0046463334
000030 ff 1c 30 b9 cd 89 b8 39 54 d0 ae 3a 4f a0 01 bb
       -0.0001679547 0.00035197884 0.0013337233 -0.001977939
000040 85 9c 5f bc b4 09 77 3b 7d 39 f3 bb 5e 5b 45 bb
       -0.013648157 0.0037694992 -0.0074226246 -0.0030114274
000050 92 a5 43 bb 88 96 ae bb a6 63 0a bb a0 84 9c ba
       -0.0029853326 -0.0053280033 -0.0021116524 -0.0011941381
000060 4c 4f d3 bb 1d 0f 84 bb 94 50 34 ba 21 4f 8a bb
       -0.006448662 -0.004030122 -0.0006878462 -0.0042208587
000070 e7 5c 4d bb 2c cd 80 3b a2 01 b4 bb c2 08 a0 bb
       -0.0031335892 0.0039307084 -0.0054933587 -0.0048838565

bn4.running_mean f4 [32]
000000 fb c7 5c bf 70 59 a9 b9 21 53 7c bf 78 ec 8d bf
       -0.86242646 -0.00032300828 -0.98564345 -1.108779
000010 a0 00 1d 3e 8c 66 01 bf 2e a5 44 bd f3 cd 73 3e
       0.1533227 -0.505471 -0.04800909 0.23809032
000020 e9 7c e0 3d 10 2b 9b 3e 94 80 eb 3e bb e6 b7 bf
       0.10961325 0.30306292 0.45996535 -1.4367288
000030 70 a2 85 3e 1f b5 7d 3e df 2d 7c be 74 e0 14 3e
       0.26100492 0.24776123 -0.24626873 0.14538747
000040 4e 18 11 bd 8b e0 54 bd 0c 1e 58 3f 19 6c 71 3e
       -0.03542357 -0.051971953 0.8442085 0.23576392
000050 d1 36 4d bf a2 03 14 bf 8c 06 b8 bd a3 15 8c 3d
       -0.8016177 -0.57818043 -0.08985624 0.068400644
000060 c9 7f 1f be 87 1e 3c 3f 4a 85 91 bf a6 04 70 be
       -0.1557609 0.7348408 -1.1368802 -0.23439273
000070 55 da 66 bf 0e a5 a6 bf 49 ce 9b be 12 f2 60 3f
       -0.901769 -1.3019121 -0.3043082 0.8786937

bn4.running_var f4 [32]
000000 d8 ee 48 3f f6 97 93 3e 5f fe 28 3f 2e 0c 14 3f
       0.78489447 0.28826874 0.6601314 0.57831085
000010 b8 72 42 3f 25 f4 2d 3f 6f 17 e4 3e 21 c8 07 3f
       0.75956297 0.6795066 0.44549128 0.5303975
000020 e8 3d b2 3e 7e 86 ce 3e ec ed bc 3e ea 86 ac 3e
       0.34812856 0.40336984 0.3690027 0.3369668
000030 3a 08 79 3e 9a 3e 67 3e e9 6a 12 3f e8 9b 48 3f
       0.24319544 0.22582474 0.5719438 0.78362894
000040 3e 6f 20 3e 7a c5 ff 3e cc d8 88 3f b6 d7 f8 3e
       0.15667436 0.4995535 1.0691161 0.48602074
000050 9e 9a 8f 3e 3f 0e 9f 3e 3f 3c 67 3e ed 83 19 3f
       0.2804765 0.31065556 0.22581576 0.5996693
000060 72 ef 79 3e bb 16 0c 3f 41 0a 83 3f 57 6c 57 3e
       0.24407747 0.54722184 1.0237504 0.21037422
000070 c3 53 15 3f 0d a0 ba 3e d3 b4 8d 3e 3b 41 eb 3e
       0.58330935 0.36450234 0.2767702 0.45948204
